trained_models/a2c/Pendrogone-v1.pt (torch, 45758 bytes, 12 tensors)

weight f4 [64, 10]
0.16191663 0.008012709 0.08479821 -0.44256365 -0.21512249 0.034252536 -0.19278906 0.0045625237
-0.090886496 0.05043352 0.24041602 0.024179466 0.26101324 0.015501413 -0.026872696 0.1643892
-0.34976363 -0.077034146 0.15528524 0.042702656 -0.19975409 0.12114683 0.01576563 -0.0020669615
-0.13310097 0.24153024 -0.069538854 -0.017203635 0.094746664 0.20883973 -0.20247062 -0.16019024
0.27901927 0.07606083 0.17230168 0.05875867 0.008495494 -0.059617754 0.14278851 0.19545421
0.088500954 -0.074064605 -0.14446045 -0.13956623 -0.033545915 0.10459371 -0.24579617 -0.21627693
0.17304926 -0.09375921 0.09836695 0.31397164 -0.29984027 -0.35004058 0.16493008 -0.09953104
0.26855645 0.082741134 0.065124474 0.24477673 0.21288343 -0.18007429 0.18880364 -0.03308341
-0.16430719 0.066410296 0.01294988 -0.019575594 -0.03407578 -0.30417305 -0.39356688 -0.18598096
-0.08629898 0.20835711 -0.041346114 0.1777611 0.017181901 -0.2139608 0.15399483 -0.16349538
-0.07943666 0.020078102 0.053585954 -0.07681967 0.29424396 -0.13063672 -0.0046238983 0.08843927
0.011332071 -0.041860197 -0.00087384897 -0.0809082 -0.29503354 0.17282389 -0.030804593 0.2080927
0.23515068 -0.054174803 -0.24274199 0.17245834 -0.053560313 -0.16076481 -0.12097104 -0.0075815273
0.056852393 0.4727638 -0.14958213 0.50333434 -0.261125 0.13404441 0.14230086 -0.3518893
-0.23068409 -0.16595863 -0.21837527 -0.013591417 0.19602805 -0.29441592 -0.024530945 0.028630028
-0.090656534 0.4650343 0.084273025 0.16297214 0.37029374 0.17869665 -0.054602314 -0.11975044
0.070613906 0.110112324 0.2068564 -0.116702154 -0.09287577 0.015524555 0.2317912 -0.29551125
-0.17850254 0.032453228 0.062023602 0.103928216 -0.313349 -0.030829092 0.04714031 -0.0011090839
0.11519898 0.20509206 -0.0013694057 0.14935605 0.02768881 -0.17799424 0.008872931 0.16100144
0.05983143 0.22415315 0.012421646 0.0029778464 -0.066847086 0.13098285 0.068600185 -0.12905446
-0.10686413 -0.2923 -0.11121342 -0.08375976 0.20721549 -0.20240185 0.01632399 0.12868288
-0.11616869 -0.056751892 0.005104599 0.060166094 0.14161094 -0.12555794 0.057973582 0.0957091
-0.15165477 -0.03113099 0.052141663 0.23945364 0.026064418 -0.0133956745 -0.09944784 0.032535598
-0.005496777 -0.086137444 -0.25107077 -0.2232364 -0.38758704 -0.12658085 0.23410289 0.34960926
0.057893638 0.38901687 -0.18907946 -0.27533063 0.05332622 0.16500817 -0.13097608 0.16444159
-0.08241162 0.21466234 0.025434015 0.03885456 0.0042080306 -0.25264463 0.15396598 -0.047788456
-0.1849422 -0.13782369 0.1850841 0.2811694 -0.4106659 0.13045698 -0.077529974 0.06916037
-0.12519996 -0.36306694 0.073318794 -0.31068036 -0.19197622 0.054456633 -0.17158154 -0.25253886
-0.24994832 -0.3407407 -0.24497785 -0.032472305 0.04550696 0.004091141 0.06549107 0.046966728
-0.18279563 0.1567593 -0.016461823 -0.05960048 0.18717888 -0.29052454 -0.03398283 -0.30272445
-0.5723018 0.14637037 -0.0112863695 -0.27669662 0.12927727 0.05219939 -0.25372025 -0.036235217
-0.06578908 -0.13659029 0.03266901 0.13322864 -0.030378038 -0.24529757 -0.33602107 0.11049422
00000000: 79cd 253e bd47 033c afaa ad3d b497 e2be
00000010: 1249 5cbe 634c 0c3d 7f6a 45be 3981 953b
00000020: b322 babd 6193 4e3d 9e2f 763e 0414 c63c
00000030: 87a3 853e a3f9 7d3c 2124 dcbc a455 283e
00000040: 3814 b3be 14c4 9dbd 1803 1f3e fbe8 2e3d
00000050: 568c 4cbe d41b f83d ec26 813c dc75 07bb
00000060: 9f4b 08be b453 773e 636a 8ebd a3ee 8cbc
00000070: 8a0a c23d 15da 553e 7554 4fbe e908 24be
00000080: 9ddb 8e3e c8c5 9b3d da6f 303e eeac 703d
00000090: af30 0b3c bf31 74bd 2737 123e 2625 483e
000000a0: fd3f b53d 2faf 97bd 71ed 13be 73ea 0ebe
000000b0: 7167 09bd 3a35 d63d feb1 7bbe b377 5dbe
000000c0: d333 313e d404 c0bd 9d74 c93d e4c0 a03e
000000d0: aa84 99be 8538 b3be 6ee3 283e eed6 cbbd
000000e0: 3b80 893e 2f74 a93d fb5f 853d c0a6 7a3e
000000f0: 1dfe 593e 6565 38be be55 413e 7882 07bd
00000100: 2540 28be 1f02 883d bc2b 543c ff5c a0bc
00000110: 0c93 0bbd 92bc 9bbe 9981 c9be cb71 3ebe
00000120: 85bd b0bd 915b 553e 8b5a 29bd 0107 363e
00000130: 0fc1 8c3c 8a18 5bbe d2b0 1d3e 556b 27be
00000140: b0af a2bd d57a a43c f27c 5b3d a253 9dbd
00000150: 25a7 963e a2c5 05be 1284 97bb a61f b53d
00000160: 27aa 393c 9975 2bbd 0313 65ba 33b3 a5bd
00000170: a30e 97be bff8 303e ea59 fcbc 4116 553e
00000180: 57cb 703e 66e6 5dbd 5b91 78be eb98 303e
00000190: 0f62 5bbd 889f 24be aabf f7bd 766e f8bb
000001a0: 0ede 683d 190e f23e 0f2c 19be 85da 003f
000001b0: 2db2 85be f042 093e 51b7 113e d62a b4be
000001c0: 7338 6cbe 0ff1 29be c49d 5fbe 89ae 5ebc
000001d0: 94bb 483e afbd 96be 1ff5 c8bc 8589 ea3c
000001e0: 22aa b9bd fa18 ee3e 5697 ac3d 2be2 263e
000001f0: 2497 bd3e 41fc 363e ada6 5fbd b83f f5bd
00000200: 069e 903d 9282 e13d 2ad2 533e 8a01 efbd
00000210: a735 bebd b45a 7e3c ac5a 6d3e 404d 97be
00000220: 5fc9 36be aded 043d 760c 7e3d 51d8 d43d
00000230: 486f a0be 4b8d fcbc 3316 413d ae5e 91ba
00000240: 71ed eb3d a703 523e a17d b3ba cbf0 183e
00000250: a5d3 e23c 1f44 36be c55f 113c 90dd 243e
00000260: cd11 753d 6788 653e 2984 4b3c f927 433b
00000270: 20e7 88bd 5e20 063e 417e 8c3d da26 04be
00000280: 95db dabd 58a8 95be ddc3 e3bd 3d8a abbd
00000290: 4c30 543e 6e42 4fbe e3b9 853c 72c5 033e
000002a0: dae9 edbd ac74 68bd 7b44 a73b b970 763d
000002b0: 7502 113e 4392 00be b575 6d3d 2203 c43d
000002c0: 634b 1bbe 6b06 ffbc 7f92 553d 5633 753e
000002d0: 0c85 d53c 8879 5bbc 4fab cbbd 0c44 053d
000002e0: 4f1e b4bb d468 b0bd 598c 80be 1598 64be
000002f0: cf71 c6be 699e 01be abb8 6f3e fcff b23e
00000300: e121 6d3d 382d c73e 0c9e 41be 23f8 8cbe
00000310: 986c 5a3d e7f7 283e 981e 06be 6063 283e
00000320: 6cc7 a8bd 72d0 5b3e ff5a d03c f625 1f3d
00000330: 85e3 893b a35a 81be 42a9 1d3e d4bd 43bd
00000340: 7d61 3dbe a721 0dbe b086 3d3e 70f5 8f3e
00000350: cd42 d2be 8496 053e 09c8 9ebd f4a3 8d3d
00000360: 6b34 00be e9e3 b9be 2a28 963d 7f11 9fbe
00000370: 6a95 44be eb0d 5f3d 12b3 2fbe c64c 81be
00000380: 74f2 7fbe 9175 aebe 79db 7abe ae01 05bd
00000390: 8265 3a3d fa0e 863b 2f20 863d 2f60 403d
000003a0: c72e 3bbe 8385 203e f2da 86bc a21f 74bd
000003b0: d2ab 3f3e a2bf 94be 9431 0bbd b3fe 9abe
000003c0: 5f82 12bf 1de2 153e 77ea 38bc 2eab 8dbe
000003d0: 4361 043e 07cf 553d 9fe7 81be 616b 14bd
000003e0: 6dbc 86bd 53de 0bbe f1cf 053d 176d 083e
000003f0: 5ddb f8bc 492f 7bbe f40a acbe cb4a e23d

bias f4 [64]
0.01565145 -0.010241613 0.016102016 -0.007033851 -0.0015100441 0.003599431 0.006798856 -0.005386968
-0.010485213 0.010904342 -0.009107864 0.0010154073 0.0076993597 -0.013394349 0.008378475 -0.009394444
0.007376115 -0.0036956673 -0.006235493 0.006472969 -0.008187387 -0.010036882 -0.016952526 0.006931931
-0.00857065 -0.014477006 0.009272449 0.0012646432 0.013780975 -0.010617524 0.006909304 0.0006407046
0.00606439 -0.01322803 0.009393284 0.005923257 0.014341347 -0.0066270703 -0.0065920786 0.0055806977
-0.0039263815 0.0022130548 -0.01601479 -0.007685339 0.0033611949 -0.005745377 -0.015318973 -0.006734587
0.010054885 -0.007807377 -0.004072939 -0.0028249018 -0.029213602 -0.00832368 0.017973602 0.008341726
0.023341121 -0.003968364 0.0035312648 -0.01000703 -0.02119733 0.0049495823 -0.006300977 0.005140731
00000000: 7837 803c 70cc 27bc 60e8 833c 387c e6bb
00000010: acec c5ba 6ee4 6b3b f0c8 de3b 2a85 b0bb
00000020: 2cca 2bbc 20a8 323c 2739 15bc 6a17 853a
00000030: e94a fc3b f973 5bbc df45 093c 27eb 19bc
00000040: 56b3 f13b 0233 72bb 1b53 ccbb 331b d43b
00000050: 6424 06bc bc71 24bc 06e0 8abc 4025 e33b
00000060: e96b 0cbc f730 6dbc 78eb 173c 62c2 a53a
00000070: 99c9 613c 20f5 2dbc 7167 e23b f5f4 273a
00000080: cab7 c63b 61ba 58bc 4ae6 193c e217 c23b
00000090: f8f7 6a3c e527 d9bb 5d02 d8bb 49de b63b
000000a0: e0a8 80bb e608 113b 7331 83bc 4cd5 fbbb
000000b0: 7e47 5c3b b743 bcbb 6efc 7abc cfad dcbb
000000c0: 3fbd 243c 06d5 ffbb 4a76 85bb fd21 39bb
000000d0: 5d51 efbc 0b60 08bc 603d 933c bcab 083c
000000e0: e135 bf3c 0d09 82bb cb6c 673b 87f4 23bc
000000f0: 06a6 adbc 1b30 a23b 6d78 cebb 9473 a83b

weight f4 [64, 64]
0.121853635 -0.22235207 -0.036492404 0.03410546 -0.3084225 -0.20538254 0.046943557 -0.06532131
0.25630537 -0.3387192 0.095935024 0.09508412 0.039335344 -0.072456114 0.05450036 -0.1428244
-0.1545835 0.10425747 0.054258477 0.14906414 0.0084932335 -0.026506988 0.010972077 -0.16981633
0.5164957 -0.23737682 -0.011404086 0.2254455 0.20571934 -0.2452468 -0.1606657 0.17945798
-0.056184802 -0.20323123 -0.16331859 -0.02053768 -0.19290654 -0.2245272 -0.251127 -0.2897545
0.09084744 0.24336788 0.09175957 0.29390854 -0.07001988 0.17542602 -0.13163592 0.29725975
-0.27425945 0.08255044 -0.11953462 -0.044589195 0.19006811 0.2782418 -0.089240424 0.17349197
0.046190757 -0.15890084 -0.15397252 -0.014144999 -0.18397014 -0.15417646 0.19362469 -0.063010044
-0.050727505 -0.072051756 0.14652959 0.2926278 0.16767696 -0.008464122 0.2897653 0.15294665
-0.16374764 0.1796481 -0.17727348 0.2110413 -0.18792251 -0.091404356 0.10926392 0.24418908
-0.01976351 -0.052862097 -0.07692423 0.13589585 0.046515692 0.1109406 -0.10217244 -0.30084944
-0.2601532 -0.023294669 -0.18429291 -0.15541306 -0.4910615 0.24057995 -0.43177575 -0.056497093
-0.10765856 -0.16268733 0.054111194 -0.0208861 -0.041759137 0.081063576 0.088241585 -0.31222206
0.0661139 0.48526424 0.009444887 0.22575161 -0.20432785 -0.11099707 -0.38281173 0.32202643
0.13202463 0.1272564 0.09201186 -0.014086826 -0.15088335 -0.06869035 0.027646665 -0.04568768
0.0781199 0.14322868 0.059658837 0.15062407 0.0947474 -0.12549327 -0.029909542 0.079947494
0.31469256 -0.01646813 0.12494534 0.17237481 -0.06099924 0.40731508 -0.09558512 0.2194722
-0.006898508 -0.2504545 -0.13867956 0.078063354 0.15350354 0.09121774 -0.005629767 -0.020052595
0.23234642 0.3098535 -0.33100426 0.047584664 0.0011110831 0.23003417 -0.082303956 0.26939887
0.02921769 0.26202142 0.022648333 0.2222574 -0.02166014 -0.072387755 0.04114679 0.041313242
-0.15529513 0.003931953 0.48476893 0.0636955 0.038508553 0.04217558 0.32756805 -0.075689524
-0.088217705 -0.059130244 0.13919318 0.26703995 0.14232227 -0.013470278 -0.06519087 -0.027612926
-0.23734677 0.15290669 -0.15326029 0.053793486 0.1559375 0.0664804 -0.37679946 -0.0628024
-0.01757993 0.18363902 0.17454001 0.06233605 -0.20176077 0.15728098 0.30909252 0.016017394
-0.38301978 0.09732124 -0.111018 0.021951137 0.27669722 -0.09423132 -0.088500366 -0.19054064
0.14535695 0.018041944 0.29157075 0.1273207 -0.2120117 0.014755935 0.29146293 -0.19256625
-0.08641943 -0.07300526 -0.101928115 -0.11027354 -0.08666222 -0.18868977 -0.19959873 0.06052635
-0.05105912 0.042897806 -0.025580296 -0.15508676 -0.27779377 -0.046206176 0.06683853 0.23020607
0.17737621 0.25981966 0.31671616 -0.12911204 -0.010824444 -0.14491811 -0.28609833 -0.3370979
-0.14441356 0.012745502 0.06609887 -0.079814956 0.27676937 0.051433787 -0.0986654 0.14693564
0.3197877 0.08504008 -0.17835903 0.16740453 -0.058809876 0.29582492 -0.041925073 -0.09866631
0.044591725 0.15270278 0.0048211194 -0.264115 -0.084744945 0.289017 0.32674798 0.20081079
00000000: 668e f93d 43b0 63be 0f79 15bd 2bb2 0b3d
00000010: 8ee9 9dbe cd4f 52be e347 403d 2ec7 85bd
00000020: 753a 833e 9a6c adbe 9579 c43d 77bb c23d
00000030: 191e 213d df63 94bd c53b 5f3d 8f40 12be
00000040: 234b 1ebe f184 d53d 233e 5e3d 45a4 183e
00000050: 3427 0b3c 2f25 d9bc 3ac4 333c 55e4 2dbe
00000060: 1039 043f e912 73be 34d8 3abc 2fdb 663e
00000070: 17a8 523e fa21 7bbe 8d85 24be d5c3 373e
00000080: 0922 66bd d91b 50be fd3c 27be a33e a8bc
00000090: 4b89 45be 75ea 65be b893 80be b45a 94be
000000a0: 390e ba3d 6e35 793e 71ec bb3d 2e7b 963e
000000b0: 9566 8fbd e1a2 333e 91cb 06be 6e32 983e
000000c0: bc6b 8cbe 3510 a93d 91ce f4bd 29a3 36bd
000000d0: 37a1 423e b675 8e3e afc3 b6bd e1a7 313e
000000e0: 8532 3d3d e7b6 22be f9aa 1dbe 6dc0 67bc
000000f0: ab62 3cbe 6fe0 1dbe 8d45 463e 690b 81bd
00000100: a5c7 4fbd df8f 93bd da0b 163e 50d3 953e
00000110: 82b3 2b3e 1aad 0abc 1e5c 943e 0c9e 1c3e
00000120: 76ad 27be acf5 373e 2e87 35be 361b 583e
00000130: c26e 40be 3532 bbbd c3c5 df3d b40c 7a3e
00000140: 16e7 a1bc ed85 58bd 738a 9dbd 4828 0b3e
00000150: 3d87 3e3d d334 e33d c93f d1bd f008 9abe
00000160: cd32 85be 76d4 bebc 48b7 3cbe 9a24 1fbe
00000170: 6a6c fbbe 975a 763e b611 ddbe 7f69 67bd
00000180: 177c dcbd 8297 26be b3a3 5d3d 5419 abbc
00000190: a10b 2bbd a904 a63d 01b8 b43d 92db 9fbe
000001a0: b966 873d 8e74 f83e babe 1a3c 6e2b 673e
000001b0: 523b 51be 6f52 e3bd e6ff c3be a6e0 a43e
000001c0: 7731 073e 804f 023e b770 bc3d 6ecc 66bc
000001d0: 2a81 1abe 87ad 8cbd 427b e23c 0123 3bbd
000001e0: 53fd 9f3d 8aaa 123e d35c 743d 323d 1a3e
000001f0: ed0a c23d 4f81 00be db04 f5bc 83bb a33d
00000200: 621f a13e 2ce8 86bc 58e3 ff3d 0683 303e
00000210: 57da 79bd 9a8b d03e 22c2 c3bd 52bd 603e
00000220: e10c e2bb 923b 80be 0402 0ebe aedf 9f3d
00000230: 0830 1d3e 5ed0 ba3d e979 b8bb 5745 a4bc
00000240: 38ec 6d3e 1ea5 9e3e 6479 a9be 23e8 423d
00000250: c3a1 913a 148e 6b3e fa8e a8bd a6ee 893e
00000260: f059 ef3c ac27 863e ff88 b93c 7297 633e
00000270: 9b70 b1bc 0840 94bd 8989 283d 1338 293d
00000280: b005 1fbe 9dd7 803b a233 f83e c972 823d
00000290: 25bb 1d3d 4dc0 2c3d 00b7 a73e 1c03 9bbd
000002a0: 7cab b4bd 8e32 72bd a888 0e3e 76b9 883e
000002b0: eebc 113e 71b2 5cbc ca82 85bd 8134 e2bc
000002c0: 080b 73be 9293 1c3e 44f0 1cbe 8f56 5c3d
000002d0: 14ae 1f3e e026 883d dceb c0be 8b9e 80bd
000002e0: c903 90bc de0b 3c3e 9eba 323e 1654 7f3d
000002f0: 609a 4ebe 440e 213e 6041 9e3e e936 833c
00000300: 2b1b c4be 5c50 c73d 685d e3bd dfd2 b33c
00000310: 42ab 8d3e 5afc c0bd ae3f b5bd 161d 43be
00000320: 74d8 143e b3cc 933c c348 953e 5c60 023e
00000330: 9819 59be e1c2 713c a13a 953e 1630 45be
00000340: acfc b0bd c883 95bd b0bf d0bd 18d7 e1bd
00000350: f67b b1bd e437 41be 9c63 4cbe 7aea 773d
00000360: 5e23 51bd 9cb5 2f3d c58d d1bc 10cf 1ebe
00000370: fc3a 8ebe b042 3dbd a4e2 883d 24bb 6b3e
00000380: 1ca2 353e 1507 853e 9f28 a23e f235 04be
00000390: 0259 31bc 6a65 14be 7b7b 92be 1998 acbe
000003a0: 26e1 13be 83d2 503c d85e 873d 0676 a3bd
000003b0: b7b4 8d3e 3cac 523d 1611 cabd 4c76 163e
000003c0: 37bb a33e 7e29 ae3d c0a3 36be 186c 2b3e
000003d0: a0e2 70bd 5d76 973e a0b9 2bbd 9011 cabd
000003e0: d0a5 363d 1e5e 1c3e 7bfa 9d3b 153a 87be
000003f0: c28e adbd 09fa 933e 834b a73e 58a1 4d3e

bias f4 [64]
-0.029032744 0.022217724 -0.017018437 0.023299955 -0.012832469 -0.0038450044 -0.027121045 0.029861936
0.04154268 0.0073340656 -0.01589278 -0.038296912 -0.018768376 0.026033055 -0.025012916 0.014371363
0.043041263 0.032056708 -0.0069410736 0.009361003 -0.03908013 -0.03513752 -0.016767858 0.032123722
0.030462313 0.005022259 0.0229579 -0.0035927598 -0.009910555 -0.031943124 -0.00525858 0.012493764
-0.043575194 0.015124423 0.032399487 0.06619601 -0.047692154 -0.017528169 -0.0025930766 -0.027977899
0.022651615 -0.028459402 -0.04967013 -0.03379036 0.014709759 0.020802395 -0.013486137 0.041247465
-0.06028177 -0.0069611566 -0.018466169 0.024762258 0.03202114 -0.0256218 0.0050303703 0.042510957
-0.0024636174 -0.04220482 0.003996259 -0.02700768 -0.025494635 0.02310079 -0.024408512 0.03598735
00000000: 14d6 edbc f201 b63c 406a 8bbc 8cdf be3c
00000010: 473f 52bc 78fc 7bbb f42c debc 05a1 f43c
00000020: a828 2a3d 9a52 f03b 9331 82bc 39dd 1cbd
00000030: 23c0 99bc 4643 d53c e3e7 ccbc de75 6b3c
00000040: 094c 303d e54d 033d f271 e3bb e45e 193c
00000050: 7d12 20bd 5cec 0fbd bf5c 89bc 2a94 033d
00000060: 1a8c f93c c391 a43b 3512 bc3c 8274 6bbb
00000070: e15f 22bc cbd6 02bd 2b50 acbb a5b2 4c3c
00000080: e77b 32bd 6ecc 773c 53b5 043d c691 873d
00000090: d958 43bd 3c97 8fbc 9bf0 29bb e831 e5bc
000000a0: e18f b93c b123 e9bc e872 4bbd c367 0abd
000000b0: 3301 713c c969 aa3c f5f4 5cbc 1af3 283d
000000c0: 04ea 76bd 6a1a e4bb 5d46 97bc 38da ca3c
000000d0: 9928 033d cfe4 d1bc ced5 a43b f81f 2e3d
000000e0: a474 21bb f6de 2cbd 0df3 823b 363f ddbc
000000f0: 20da d0bc de3d bd3c 5cf4 c7bc 7967 133d

weight f4 [64, 10]
0.21720767 0.05141969 0.08906157 0.07295106 -0.21737754 -0.044076003 -0.00743664 0.0047975457
0.17076796 0.0744978 0.17781883 -0.07637985 0.05675996 0.004993216 -0.009872343 -0.0046451474
0.33382958 -0.06525265 0.015139197 -0.012953987 0.10030732 0.005547952 -0.048798975 -0.38369095
-0.025477223 -0.03924758 0.25925598 0.5269514 -0.06622199 0.013916878 -0.06732862 -0.007989777
0.19718409 0.04294583 0.038347997 -0.23679474 -0.3043219 -0.32721293 0.028814862 0.063905835
-0.1321346 -0.31324735 -0.046238117 0.27629668 -0.048602592 0.30064094 -0.41473874 0.29496878
0.12580742 0.2628877 -0.039898846 0.3936014 -0.17514166 -0.015496951 -0.32179606 -0.28545612
0.18019892 0.14249885 -0.32185215 0.0154091865 0.11750414 -0.3425908 0.22848548 -0.19469978
0.033556603 0.19999371 0.056385785 -0.12268004 0.041553482 -0.17479788 -0.32050958 0.02337084
0.20377769 -0.096723594 0.33833775 -0.021908637 -0.057246454 0.040282354 0.17803244 -0.36857194
0.4279927 0.095579855 -0.13201845 0.13545117 -0.09666684 0.1382611 -0.121177904 0.050790213
0.16915716 0.032248583 0.056616887 0.0008752275 0.054531362 -0.00095784763 -0.25403905 -0.09743154
0.097227715 -0.3858665 0.26130933 0.07209689 -0.14372312 -0.39491895 0.18436898 0.03137268
0.08905638 -0.10660468 -0.012574308 0.021645281 0.40258405 -0.1537711 0.051524412 -0.1927652
-0.3307032 0.41989335 0.11162902 -0.14669487 0.13610911 0.15950671 0.11621216 -0.31865954
0.053099904 0.0074509713 -0.005549628 0.019047733 0.022021038 0.23337877 0.10690833 0.28673214
-0.08137606 -0.11398702 0.008735456 -0.056279205 -0.15696166 0.11980549 0.033802733 0.32351097
-0.07104849 0.0698527 0.08552192 0.25319025 0.10726856 -0.34513152 -0.16033931 0.11167407
0.10807539 0.22524524 0.09323377 -0.37185374 0.14201064 0.002317328 -0.05353604 -0.22409514
-0.07672434 -0.16004473 0.0043287636 -0.094977535 -0.061411064 0.17654838 7.1842296e-05 0.07761441
0.123650625 -0.07643035 0.039340574 -0.36011934 -0.24704523 0.061235767 -0.17617212 -0.10626466
-0.031240582 0.18412296 -0.070368566 -0.0070964117 -0.06170228 -0.124947816 0.111585975 0.23186533
-0.02800566 -0.17404763 -0.17324816 0.20953245 -0.10055215 0.07821844 -0.21776311 -0.11438023
-0.2718473 0.04071321 -0.14673866 -0.069733135 0.14301623 0.109201044 -0.1667486 0.15315318
-0.14930035 -0.06254072 0.22393362 0.056796256 0.09822651 0.2150809 0.044052377 -0.15324503
-0.035696976 -0.31264737 -0.23251486 -0.2124139 -0.18546891 -0.040453393 -0.09425324 -0.14758584
-0.27052703 0.007930927 -0.44599703 -0.03973135 -0.15555242 0.07444668 -0.098607704 -0.15091139
-0.0982015 0.082552716 0.2046711 -0.15153338 0.0026542114 -0.04951927 -0.2050066 0.3012776
0.14037707 0.011073557 -0.10452434 0.028234918 -0.4666498 0.056325983 0.027763791 -0.122022726
0.22324984 -0.15785562 0.013743797 0.18909666 0.0652565 0.30875352 0.016131284 0.41430894
0.15312636 -0.060643338 -0.07914833 0.29978332 -0.21165073 -0.027959205 0.034969386 -0.06766508
-0.050425105 0.06663938 -0.34646744 -0.098093234 0.13166134 -0.15025459 -0.1974795 -0.027823986
00000000: b06b 5e3e 749d 523d ea65 b63d 5e67 953d
00000010: 3898 5ebe 0a89 34bd 0faf f3bb bb34 9d3b
00000020: ccdd 2e3e 4d92 983d 2416 363e 0a6d 9cbd
00000030: 227d 683d 229e a33b 9cbf 21bc 5236 98bb
00000040: b6eb aa3e 2ea3 85bd 650a 783c f63c 54bc
00000050: ed6d cd3d 98cb b53b 6fe1 47bd 2473 c4be
00000060: 9cb5 d0bc 12c2 20bd 33bd 843e 49e6 063f
00000070: 659f 87bd 9e03 643c 96e3 89bd 8ee7 02bc
00000080: a0ea 493e f7e7 2f3d ca12 1d3d 527a 72be
00000090: 14d0 9bbe 7488 a7be 250d ec3c 10e1 823d
000000a0: 4b4e 07be f561 a0be 2e64 3dbd c276 8d3e
000000b0: 8313 47bd 9ced 993e a358 d4be 2606 973e
000000c0: a9d3 003e 3799 863e f96c 23bd 1f86 c93e
000000d0: 5658 33be ece6 7dbc 74c2 a4be 4e27 92be
000000e0: 1186 383e 38eb 113e cec9 a4be d076 7c3c
000000f0: 03a6 f03d 1068 afbe 19f8 693e 615f 47be
00000100: a672 093d 27cb 4c3e c8f4 663d ac3f fbbd
00000110: fc33 2a3d 37fe 32be d519 a4be 3474 bf3c
00000120: 19ab 503e 0517 c6bd 9b3a ad3e be79 b3bc
00000130: 427b 6abd 1cff 243d 234e 363e 76b5 bcbe
00000140: dc21 db3e 5fbf c33d d82f 07be b6b3 0a3e
00000150: 44f9 c5bd 5194 0d3e 1f2c f8bd 6609 503d
00000160: 8937 2d3e 1717 043d 1ce7 673d 866f 653a
00000170: 475c 5f3d 1118 7bba 6811 82be 308a c7bd
00000180: 531f c73d 4b90 c5be 56ca 853e 89a7 933d
00000190: 272c 13be d132 cabe 39cb 3c3e a480 003d
000001a0: 3163 b63d 8e53 dabd 7804 4ebc 7251 b13c
000001b0: 7f1f ce3e 2c76 1dbe 430b 533d 3e64 45be
000001c0: ee51 a9be 43fc d63e c19d e43d 2e37 16be
000001d0: 3060 0b3e ba55 233e a400 ee3d 5827 a3be
000001e0: 497f 593d 4727 f43b a7d9 b5bb fe09 9c3c
000001f0: 7765 b43c d8fa 6e3e c1f2 da3d 8ece 923e
00000200: 7ea8 a6bd 0772 e9bd 281f 0f3c 0685 66bd
00000210: 8fba 20be 955c f53d bc74 0a3d 3ba3 a53e
00000220: df81 91bd ef0e 8f3d 1e26 af3d 27a2 813e
00000230: 9eaf db3d 14b5 b0be fd2f 24be 60b5 e43d
00000240: a156 dd3d b0a6 663e 59f1 be3d 9d63 bebe
00000250: 3d6b 113e 50de 173b 9b48 5bbd 3279 65be
00000260: a721 9dbd c4e2 23be 4dd8 8d3b 9583 c2bd
00000270: 2b8a 7bbd 19c9 343e 0aaa 9638 4ef4 9e3d
00000280: 8a3c fd3d 8487 9cbd 9523 213d 9061 b8be
00000290: 6df9 7cbe 5bd2 7a3d 7766 34be 49a1 d9bd
000002a0: 40ec ffbc bb8a 3c3e 651d 90bd 0489 e8bb
000002b0: 88bb 7cbd a4e4 ffbd 3087 e43d 1b6e 6d3e
000002c0: 206c e5bc 8b39 32be f767 31be ad8f 563e
000002d0: 49ee cdbd fd30 a03d 4bfd 5ebe 2f40 eabd
000002e0: 922f 8bbe e5c2 263d a942 16be 3fd0 8ebd
000002f0: d972 123e cca4 df3d 25c0 2abe 30d4 1c3e
00000300: 31e2 18be 5915 80bd db4e 653e 31a3 683d
00000310: fb2a c93d 2b3e 5c3e 4470 343d 44ec 1cbe
00000320: fe36 12bd 5113 a0be 6018 6ebe 0883 59be
00000330: 90eb 3dbe 75b2 25bd d807 c1bd be20 17be
00000340: 8582 8abe b8f0 013c b959 e4be 57bd 22bd
00000350: 2249 1fbe 8077 983d d6f2 c9bd 8488 1abe
00000360: de1d c9bd 6611 a93d 4d95 513e 912b 1bbe
00000370: 47f2 2d3b b8d4 4abd 40ed 51be 0f41 9a3e
00000380: 02bf 0f3e dd6d 353c db10 d6bd ea4c e73c
00000390: b9ec eebe 13b6 663d e470 e33c 0de7 f9bd
000003a0: 9b9b 643e e7a4 21be aa2d 613c 8ea2 413e
000003b0: 33a5 853d f114 9e3e c125 843c 4d20 d43e
000003c0: 28cd 1c3e 2665 78bd 8518 a2bd 337d 993e
000003d0: f8ba 58be b40a e5bc 0f3c 0f3d fd93 8abd
000003e0: 8e8a 4ebd 3a7a 883d 2e64 b1be 1be5 c8bd
000003f0: 3bd2 063e 57dc 19be 1138 4abe 21ef e3bc

bias f4 [64]
-0.012087312 0.008852029 -0.017094335 0.03475897 0.0067766793 -0.006361994 -0.007351975 -0.014566745
-0.007792314 0.0088755125 0.009737568 -0.018233957 0.007118049 0.020753046 0.006057672 -0.01790009
0.009592424 0.0122110965 -0.014541564 0.0079341475 -0.004299578 -0.016741779 -0.013376788 -0.022281889
-0.013380731 -0.041297436 -0.00025397853 -0.00948612 0.0065441574 -0.007380186 0.00035525023 0.015119923
-0.011991148 0.017327493 -0.0057264976 -0.008010025 0.0072047925 -0.009176635 0.026561402 0.015400972
0.011370824 0.0066074086 -0.0021262842 -0.009251329 -0.007115459 0.01801609 0.02423965 0.013747531
0.012008462 -0.0082446 -0.018083613 -0.009409731 0.01033985 -0.0086062625 -0.00943424 -0.0036925226
-0.008455214 0.014441872 -0.009465431 -0.008563235 0.004493866 0.012619921 -0.018962495 -0.004250101
00000000: dc09 46bc 1a08 113c 6b09 8cbc 6c5f 0e3d
00000010: e80e de3b 4678 d0bb d6e8 f0bb 5ba9 6ebc
00000020: ab56 ffbb 996a 113c 528a 1f3c 615f 95bc
00000030: 863e e93b 4b02 aa3c 707f c63b 36a3 92bc
00000040: 8b29 1d3c 0d11 483c bd3f 6ebc 3afe 013c
00000050: 79e3 8cbb 0e26 89bc 512a 5bbc 8288 b6bc
00000060: db3a 5bbc 8027 29bd 6c28 85b9 ac6b 1bbc
00000070: 5f70 d63b 7dd5 f1bb e140 ba39 8eb9 773c
00000080: 8576 44bc 63f2 8d3c 58a5 bbbb 7b3c 03bc
00000090: 2e16 ec3b 9959 16bc 4c97 d93c 5c54 7c3c
000000a0: b14c 3a3c f682 d83b 2159 0bbb e392 17bc
000000b0: cc28 e9bb 7b96 933c 3b92 c63c 533d 613c
000000c0: 24bf 443c 5c14 07bc 1624 94bc 462b 1abc
000000d0: 7968 293c 4801 0dbc 1292 1abc 40fe 71bb
000000e0: bd87 0abc 9a9d 6c3c e514 1bbc d04c 0cbc
000000f0: 4841 933b c9c3 4e3c 3c57 9bbc 6e44 8bbb

weight f4 [64, 64]
0.061386485 0.04113055 -0.36128238 0.05836209 0.25620311 -0.15956692 0.25502267 -0.21221566
-0.34420946 0.16547471 0.011254546 0.108701974 -0.29037043 0.19281033 0.013957013 0.13018428
0.17456105 0.5558238 -0.32173815 -0.19522756 0.05312593 -0.07783 0.3184359 0.078721695
-0.05085509 -0.038737297 0.20621334 -0.34984413 -0.04486867 0.04809129 0.20705658 -0.5222492
0.03989359 -0.24241155 0.022613795 -0.06547095 0.0583408 -0.39593112 -0.10423913 0.19146642
0.2211532 0.31090346 0.25706795 -0.25331262 0.14226523 -0.11272322 0.32145756 0.3489542
-0.15435706 -0.33561295 -0.13036625 0.24972974 0.030932702 0.04033353 -0.37620622 -0.22967167
-0.023479475 0.29152966 -0.09618042 -0.3963414 -0.19304837 -0.2843306 -0.06695559 -0.0515713
0.042468265 0.23535152 -0.07328349 -0.31093797 0.3715653 0.3666273 0.12484786 0.047224496
0.1245295 0.55438983 0.19746463 0.3701608 -0.002655496 0.2112231 0.17992206 -0.0012499415
0.23914245 0.49070403 -0.11932605 -0.38220707 0.31665972 0.15353134 0.3756027 0.096791126
0.16110912 -0.21561626 0.2690945 -0.27706924 0.08248345 -0.29298648 -0.013547585 -0.26150143
-0.50093246 -0.18696511 -0.22631009 0.24134348 -0.14564507 -0.21133773 -0.086535096 -0.020398986
0.014446674 0.21429598 -0.21172768 0.22923651 -0.006950958 -0.057748236 0.013581564 0.15935409
-0.16219729 -0.10461082 -0.34706202 0.111693315 0.041510575 0.18678808 -0.045359768 -0.2791963
-0.030320995 -0.043826662 0.054353524 0.074019074 -0.3243129 0.12287524 -0.107615985 0.2764018
-0.21317782 0.031703476 0.056264434 0.4093102 -0.17595772 -0.27065963 0.12561679 0.058971442
-0.09978394 0.30237883 -0.050229486 0.55248404 -0.40000173 0.16734529 0.048052143 0.14234136
0.23147729 0.3564123 -0.32303146 -0.0419711 0.032559857 -0.10789018 -0.12131174 -0.081581354
0.11277487 0.27440035 0.16850182 -0.14785762 -0.07457199 -0.27365956 -0.03651796 0.009234381
-0.23519383 -0.31417584 -0.1800463 0.34329426 0.1633605 -0.14630099 -0.11286605 -0.4560181
0.004475999 -0.004178391 -0.20782857 0.354646 0.14467336 -0.16939783 0.4043983 -0.040058736
-0.27505836 -0.4502205 -0.15516736 -0.026288897 -0.067336336 0.21360569 -0.16048642 -0.3073185
0.0074262526 0.35253382 -0.19115421 -0.3297186 -0.2798254 0.1600031 -0.1125953 0.09781973
0.1530313 -0.061463244 0.15038347 -0.49403793 -0.04024553 0.08664324 0.113437034 -0.07205846
0.14312226 -0.3191025 -0.030091802 0.037553273 0.057873655 -0.028253535 -0.10100991 -0.13854618
-0.30517966 -0.33478794 0.28054398 -0.20937318 -0.48562428 -0.25167525 -0.14497219 0.047491137
-0.22065654 -0.24823365 -0.16134651 0.49338937 -0.015849655 0.20158094 -0.01203556 -0.1939523
0.22249441 0.035219915 0.13547021 0.10043497 0.10224237 0.352027 0.021259155 -0.40703437
0.15921216 -0.47472975 -0.012830986 -0.35056925 0.53633124 0.33360925 -0.17374106 -0.2083526
0.09784869 0.20462017 0.2461876 0.09738331 -0.08294966 0.0012739855 0.2086284 0.21457925
-0.24170351 0.10552239 0.19583158 0.18987313 0.15865748 0.11761125 0.19755074 -0.042078525
00000000: 6570 7b3d 8278 283d 01fa b8be 160d 6f3d
00000010: 0e2d 833e 8365 23be 5592 823e 104f 59be
00000020: 393c b0be 3472 293e fd64 383c 249f de3d
00000030: 6fab 94be 1270 453e f5ab 643c 074f 053e
00000040: 22c0 323e 784a 0e3f ddba a4be bce9 47be
00000050: 939a 593d 5665 9fbd 080a a33e d738 a13d
00000060: 6d4d 50bd 00ab 1ebd 9729 533e c51e b3be
00000070: 36c8 37bd 5ffb 443d a406 543e 20b2 05bf
00000080: 7667 233d bc3a 78be 9140 b93c a215 86bd
00000090: c3f6 6e3d 7cb7 cabe 537b d5bd c60f 443e
000000a0: fc75 623e bd2e 9f3e 699e 833e 31b2 81be
000000b0: faad 113e 6edb e6bd 1696 a43e 20aa b23e
000000c0: c70f 1ebe 76d5 abbe bb7e 05be 27b9 7f3e
000000d0: 9466 fd3c c634 253d 1a9e c0be 0d2f 6bbe
000000e0: 0758 c0bc 6043 953e 3dfa c4bd 43ed cabe
000000f0: 79ae 45be c893 91be 0320 89bd 6d3c 53bd
00000100: 34f3 2d3d fdff 703e a815 96bd 4333 9fbe
00000110: cf3d be3e 93b6 bb3e 3cb0 ff3d 796e 413d
00000120: 5309 ff3d 7eec 0d3f 2b34 4a3e b785 bd3e
00000130: d407 2ebb de4a 583e 7d3d 383e 14d5 a3ba
00000140: c2e1 743e 8f3d fb3e 3761 f4bd a5b0 c3be
00000150: 3921 a23e 5237 1d3e ff4e c03e 6d3a c63d
00000160: caf9 243e 82ca 5cbe c1c6 893e 05dc 8dbe
00000170: 15ed a83d 5302 96be b1f6 5dbc 84e3 85be
00000180: 1c3d 00bf c873 3fbe d5bd 67be bf22 773e
00000190: fb23 15be eb68 58be 5039 b1bd c61b a7bc
000001a0: beb1 6c3c 6870 5b3e 24cf 58be fabc 6a3e
000001b0: ddc4 e3bb 6a89 6cbd 3585 5e3c b82d 233e
000001c0: 0c17 26be 333e d6bd 1db2 b1be 77bf e43d
000001d0: fe06 2a3d 6045 3f3e 2acb 39bd d1f2 8ebe
000001e0: bc63 f8bc 9683 33bd cda1 5e3d 5097 973d
000001f0: 570c a6be 04a6 fb3d c565 dcbd 8984 8d3e
00000200: 494b 5abe 81db 013d 8975 663d 1b91 d13e
00000210: 432e 34be e693 8abe b0a1 003e 0a8c 713d
00000220: 865b ccbd 66d1 9a3e 6fbd 4dbd 986f 0d3f
00000230: 07cd ccbe 905c 2b3e 53d2 443d efc1 113e
00000240: 6208 6d3e ac7b b63e 6164 a5be e3e9 2bbd
00000250: 7c5d 053d 87f5 dcbd 4a72 f8bd 2014 a7bd
00000260: 83f6 e63d 347e 8c3e be8b 2c3e fd67 17be
00000270: 33b9 98bd 1b1d 8cbe db93 15bd cd4b 173c
00000280: a7d6 70be a8db a0be 0f5e 38be 44c4 af3e
00000290: fa47 273e edcf 15be 5126 e7bd 347b e9be
000002a0: 67ab 923b e2ea 88bb 03d1 54be 2994 b53e
000002b0: 4125 143e a076 2dbe 4b0d cf3e a114 24bd
000002c0: 73d4 8cbe 4d83 e6be 31e4 1ebe d05b d7bc
000002d0: a2e7 89bd 73bb 5a3e 8d56 24be da58 9dbe
000002e0: ec57 f33b 507f b43e eebd 43be e0d0 a8be
000002f0: 4645 8fbe dad7 233e 5d98 e6bd b655 c83d
00000300: 3db4 1c3e e2c0 7bbd 20fe 193e 8af2 fcbe
00000310: 7fd8 24bd 0372 b13d ad51 e83d 6393 93bd
00000320: a48e 123e 6761 a3be 1583 f6bc 76d1 193d
00000330: ed0c 6d3d f573 e7bc 49de cebd 0ddf 0dbe
00000340: 8240 9cbe 5369 abbe 76a3 8f3e ec65 56be
00000350: bfa3 f8be 94db 80be 9773 14be 1186 423d
00000360: caf3 61be f630 7ebe 0538 25be 889d fc3e
00000370: 23d7 81bc 3c6b 4e3e cc30 45bc 6f9b 46be
00000380: 93d5 633e c242 103d b4b8 0a3e d9b0 cd3d
00000390: 7364 d13d e23c b43e ae27 ae3c cf66 d0be
000003a0: 8308 233e c70f f3be 0e39 52bc d07d b3be
000003b0: 014d 093f d5ce aa3e 2de9 31be 625a 55be
000003c0: e564 c83d f387 513e 9a18 7c3e e770 c73d
000003d0: 83e1 a9bd dcfb a63a afa2 553e aaba 5b3e
000003e0: 2081 77be 1f1c d83d 1388 483e 1a6e 423e
000003f0: 1b77 223e 2bde f03d be4a 4a3e 885a 2cbd

bias f4 [64]
0.07906214 0.14906234 0.110716656 -0.083622344 -0.09341138 -0.100416765 -0.13540794 0.11941619
-0.14617606 -0.12510498 0.1050608 -0.10417009 0.1514814 0.089037575 0.1114592 -0.11537233
-0.09510244 0.1028214 0.13982393 -0.13642164 0.111530505 0.12046932 -0.119980946 0.15590498
-0.12660667 0.06784721 0.122689754 -0.13748771 -0.11555858 0.18504186 -0.10256202 0.15824044
0.1790665 -0.16596459 0.12297523 -0.122496195 0.16181271 0.123244286 0.17519046 -0.13560037
-0.14508817 -0.13682853 0.11198172 -0.14196478 -0.11387483 -0.15073264 0.16604917 0.09221125
0.123035535 -0.06779321 -0.14311826 0.11395463 -0.14788485 -0.15310432 -0.13331622 0.17654496
0.11517694 0.14126694 -0.13313203 0.15313575 -0.13536415 -0.1380071 -0.090394214 0.10669805
00000000: 55eb a13d cca3 183e 6abf e23d 3142 abbd
00000010: 774e bfbd 4ea7 cdbd 61a8 0abe 7a90 f43d
00000020: 2daf 15be 851b 00be 1e2a d73d 2157 d5bd
00000030: f11d 1b3e 5559 b63d b944 e43d 5448 ecbd
00000040: 11c5 c2bd 0794 d23d 012e 0f3e 1db2 0bbe
00000050: 1b6a e43d 9eb8 f63d 92b8 f5bd 8ea5 1f3e
00000060: 2ea5 01be 7af3 8a3d c444 fb3d 94c9 0cbe
00000070: faa9 ecbd 9d7b 3d3e 090c d2bd c809 223e
00000080: 355d 373e 9ff2 29be 70da fb3d 49df fabd
00000090: 3bb2 253e 8067 fc3d 2165 333e d3da 0abe
000000a0: fe91 14be c71c 0cbe ac56 e53d 375f 11be
000000b0: 3537 e9bd a859 1abe cb08 2a3e 40d9 bc3d
000000c0: 0efa fb3d 2bd7 8abd 988d 12be 0c61 e93d
000000d0: 206f 17be 61c7 1cbe 0c84 08be 34c8 343e
000000e0: e3e1 eb3d 48a8 103e c353 08be 9ecf 1c3e
000000f0: e69c 0abe bc51 0dbe 9a20 b9bd 8284 da3d

weight f4 [1, 64]
-7.5208163 -7.3451853 -7.5193677 7.760233 7.4116325 7.3346806 7.4544907 -7.4874277
7.47338 7.4747567 -7.430554 7.342547 -7.363273 -7.5261264 -7.5028076 7.6787057
7.665003 -7.4199195 -7.5833893 7.3422318 -7.5106277 -7.3034077 7.4069524 -7.366199
7.451689 -7.3827305 -7.4890003 7.3424635 7.3181143 -7.3341746 7.505312 -7.625402
-7.284445 7.400845 -7.343759 7.321383 -7.559839 -7.4799066 -7.275086 7.3547525
7.386724 7.499508 -7.4233427 7.333351 7.3107595 7.292462 -7.3731456 -7.266201
-7.369186 7.6516013 7.322462 -7.330965 7.3222747 7.388836 7.4738994 -7.4178762
-7.422259 -7.3850274 7.369219 -7.3449235 7.3806887 7.566133 7.6583357 -7.6969385
00000000: 87aa f0c0 c20b ebc0 a99e f0c0 d453 f840
00000010: 182c ed40 b4b5 ea40 308b ee40 0299 efc0
00000020: ee25 ef40 3531 ef40 19c7 edc0 25f6 ea40
00000030: ef9f ebc0 07d6 f0c0 0017 f0c0 f5b7 f540
00000040: b447 f540 fb6f edc0 20ab f2c0 90f3 ea40
00000050: 1057 f0c0 84b5 e9c0 c105 ed40 e7b7 ebc0
00000060: 3c74 ee40 543f ecc0 e4a5 efc0 76f5 ea40
00000070: fe2d ea40 8fb1 eac0 842b f040 4b03 f4c0
00000080: 2c1a e9c0 b9d3 ec40 1300 ebc0 c548 ea40
00000090: 33ea f1c0 655b efc0 81cd e8c0 225a eb40
000000a0: 0b60 ec40 f8fb ef40 068c edc0 d0aa ea40
000000b0: bef1 e940 d95b e940 cff0 ebc0 b884 e8c0
000000c0: 5fd0 ebc0 ebd9 f440 9c51 ea40 4497 eac0
000000d0: 1350 ea40 5871 ec40 2f2a ef40 3e5f edc0
000000e0: 2583 edc0 2552 ecc0 a4d0 eb40 9d09 ebc0
000000f0: 9a2e ec40 c31d f240 1611 f540 524d f6c0

weight f4 [2, 64]
0.014721073 -0.15160848 -0.012356164 0.17318395 -0.06597399 0.03189175 -0.04613761 -0.188486
0.105143905 0.017719612 0.01713386 -0.17030744 -0.11461034 0.020298667 0.073786065 -0.011896003
0.15746094 0.0026849844 -0.008540365 -0.0467886 -0.11453046 -0.3579218 -0.0154137295 0.06378455
0.0033876593 0.16327704 0.065164335 0.014452972 0.01708042 -0.05226393 -0.1671841 -0.03300631
-0.171363 0.06796697 0.0025401919 0.013432456 0.19404955 0.017288847 -0.18659848 -0.15291762
-0.1515089 0.33084306 -0.021649335 0.20247388 0.01610042 0.16183312 -0.06678404 -0.054777827
0.049423736 0.025126537 -0.04540259 0.0556097 0.08104172 0.28381652 -0.054221585 0.019267539
-0.0015310675 -0.026475592 -0.039622072 0.10590245 -0.030908164 0.0065121697 -0.07435663 -0.19259983
0.26176158 0.12076049 0.042070694 -0.066491835 0.11274794 -0.17406037 0.07387747 0.1329787
0.27823886 0.0061582346 0.018812634 0.013452935 0.020280084 -0.14955862 -0.23335275 -0.0077377707
-0.03784348 0.006323703 -0.15401703 -0.08722022 0.0014488661 -0.05513676 -0.009149786 0.07027791
-0.25653142 -0.06493395 -0.04501853 0.12844916 -0.20820433 0.0782119 0.22971043 0.08724036
0.043779124 0.049871363 -0.13597435 -0.06830586 0.078224055 -0.08878442 -0.1026861 0.07010577
0.055100802 -0.05852626 0.07183985 -0.03750796 0.03332421 0.19518097 -0.0907418 -0.022382721
0.07661641 0.0071681445 0.057354316 -0.080524266 -0.09708002 0.19137478 0.1581208 0.021871807
-0.12397677 0.09461529 0.081361905 -0.034817804 0.079243414 0.0041128746 0.081988245 0.2311291
00000000: a830 713c 413f 1bbe 8271 4abc 2257 313e
00000010: 5f1d 87bd eca0 023d cafa 3cbd 7902 41be
00000020: b055 d73d b828 913c 4f5c 8c3c 1365 2ebe
00000030: d3b8 eabd 6449 a63c 261d 973d 74e7 42bc
00000040: 713d 213e 90f6 2f3b e3ec 0bbc 67a5 3fbd
00000050: f28e eabd 8741 b7be de89 7cbc 79a1 823d
00000060: 7e03 5e3b 1932 273e e174 853d 29cc 6c3c
00000070: 3dec 8b3c b412 56bd 4f32 2bbe a031 07bd
00000080: c879 2fbe 4432 8b3d 5979 263b ce13 5c3c
00000090: edb4 463e 57a1 8d3c ac13 3fbe 7096 1cbe
000000a0: 2625 1bbe 4364 a93e f259 b1bc 5055 4f3e
000000b0: 07e5 833c 95b7 253e 12c6 88bd b75e 60bd
000000c0: 8b70 4a3d 2bd6 cd3c 11f8 39bd ffc6 633d
000000d0: 34f9 a53d 6650 913e 7417 5ebd f5d6 9d3c
000000e0: 1aae c8ba 57e3 d8bc c14a 22bd 62e3 d83d
000000f0: 1e33 fdbc 0a64 d53b 4a48 98bd e438 45be
00000100: 9d05 863e 4751 f73d 5252 2c3d df2c 88bd
00000110: 64e8 e63d e23c 32be 124d 973d 912b 083e
00000120: 5375 8e3e 04cb c93b f41c 9a3c b369 5c3c
00000130: 6b22 a63c e525 19be 06f4 6ebe 208d fdbb
00000140: c401 1bbd 1137 cf3b a4b6 1dbe 84a0 b2bd
00000150: e1e7 bd3a 15d7 61bd fce8 15bc dded 8f3d
00000160: 1658 83be 17fc 84bd 5a65 38bd 2d88 033e
00000170: 8433 55be 902d a03d 3639 6b3e 13ab b23d
00000180: bd51 333d ea45 4c3d dc3c 0bbe f1e3 8bbd
00000190: ef33 a03d 9bd4 b5bd 174d d2bd 9d93 8f3d
000001a0: 61b1 613d 3bb9 6fbd c520 933d f2a1 19bd
000001b0: f87e 083d 85dd 473e d6d6 b9bd f85b b7bc
000001c0: 10e9 9c3d c1e2 ea3b 5cec 6a3d e8e9 a4bd
000001d0: e4d1 c6bd c0f7 433e 6bea 213e 812c b33c
000001e0: 88e7 fdbd a9c5 c13d 12a1 a63d 1d9d 0ebd
000001f0: 5f4a a23d 4bc5 863b 74e9 a73d 1bad 6c3e

bias f4 [2]
-0.015456058 -0.013542517
00000000: 683b 7dbc 6fe1 5dbc

_bias f4 [2, 1]
0.13918719 0.035500668
00000000: 1687 0e3e 2669 113d
