trained_models/a2c/Pendrogone-v0.pt (torch, 45758 bytes, 12 tensors)

weight f4 [64, 10]
0	0x3e014e56	0.12627539
1	0x3d55f961	0.05223978
2	0x3d77cff5	0.060501058
3	0xbef2bed6	-0.4741122
4	0xbe645c1a	-0.22300759
5	0xbabd433a	-0.0014439591
6	0xbe3c3152	-0.18378189
7	0x3cb31deb	0.021864852
8	0xbdc9c9d3	-0.09852948
9	0x3d2ccde0	0.042188525
10	0x3e74097e	0.23831746
11	0x3d0fc3a1	0.035098676
12	0x3e6d6d20	0.23186159
13	0x3c66bbb3	0.014082837
14	0xbd075c2a	-0.03304688
15	0x3e23f906	0.16012964
16	0xbead263d	-0.33818236
17	0xbd928c7d	-0.07155702
18	0x3e095805	0.13412483
19	0x3d16cd1c	0.0368167
20	0xbe6bb9c3	-0.23020081
21	0x3e2274e3	0.15864901
22	0xbaaa5b9b	-0.0012997271
23	0xbd026ab2	-0.031840034
24	0xbe09e8fb	-0.13467781
25	0x3e587a50	0.21140409
26	0xbd85f0e3	-0.06540086
27	0xbbf63265	-0.0075133317
28	0x3dc5a1f2	0.09650029
29	0x3e544cdd	0.20732446
30	0xbe3aba3e	-0.18235108
31	0xbe3c0d4e	-0.1836445
32	0x3e932aad	0.28743497
33	0x3dc40c8f	0.09572708
34	0x3e2f1733	0.17098694
35	0x3da0ae12	0.07845701
36	0x3c05e445	0.0081720995
37	0xbdb7243f	-0.0894246
38	0x3e1d64d6	0.15370497
39	0x3e484714	0.19558364
40	0x3d8be669	0.068310566
41	0xbd4bfc7d	-0.04980134
42	0xbe1f3818	-0.15548742
43	0xbe23d647	-0.15999709
44	0xbd0c0be4	-0.034191027
45	0x3dac3c74	0.08409968
46	0xbe7ba8c1	-0.24576093
47	0xbe41d80b	-0.1893007
48	0x3e2553f0	0.16145301
49	0xbdbfbc40	-0.09362078
50	0x3ddc11b4	0.10745564
51	0x3e9a4382	0.3012963
52	0xbe95db68	-0.29268956
53	0xbeae6a3d	-0.34065428
54	0x3e2989df	0.165565
55	0xbdb88d1d	-0.0901129
56	0x3e89ec9e	0.26938337
57	0x3da0652c	0.07831797
58	0x3d8b5eb1	0.0680517
59	0x3e79f960	0.24411535
60	0x3e4bf7d1	0.19918753
61	0xbe280c65	-0.16410978
62	0x3e3d8cbd	0.18510719
63	0xbd3c7790	-0.04601246
64	0xbe27778b	-0.16354196
65	0x3d5a9475	0.053364236
66	0x3c7219b5	0.014776637
67	0xbb152c2e	-0.002276193
68	0xbd0ff9e9	-0.035150442
69	0xbe9c3ff9	-0.30517557
70	0xbec02f03	-0.37535867
71	0xbe51a0de	-0.20471522
72	0xbda0d3a3	-0.078528665
73	0x3e673380	0.2257824
74	0xbd29f11f	-0.041489717
75	0x3e47e1bb	0.19519703
76	0x3c9ab14f	0.018883375
77	0xbe640ff8	-0.22271717
78	0x3e1baf22	0.15203527
79	0xbe289c77	-0.16465937
80	0xbd8c0492	-0.06836809
81	0x3c278851	0.010225371
82	0x3d39b8c9	0.04534224
83	0xbd8194dc	-0.06327221
84	0x3e941874	0.28924906
85	0xbdf60a00	-0.12013626
86	0x3ab35a12	0.0013683459
87	0x3d9c6e73	0.07638254
88	0x3b557205	0.0032569182
89	0xbd36e4a8	-0.044651657
90	0xbc4d1061	-0.012516112
91	0xbd915d08	-0.070978224
92	0xbe93e5f1	-0.2888637
93	0x3e1fae53	0.15593843
94	0xbcabb437	-0.020959957
95	0x3e49acd4	0.19694835
96	0x3e6b6b96	0.2299026
97	0xbd54563e	-0.05184006
98	0xbe6f79f8	-0.23386371
99	0x3e355484	0.17708021
100	0xbd1d49cb	-0.038400453
101	0xbe27f544	-0.16402155
102	0xbe0d8d9d	-0.13823552
103	0x3b9c2154	0.004764715
104	0x3d72db28	0.059291035
105	0x3ef91aeb	0.4865335
106	0xbe0b230d	-0.1358759
107	0x3f04fabb	0.51945084
108	0xbe98deb5	-0.29857412
109	0x3dfcae64	0.1233795
110	0x3e18ae19	0.14910163
111	0xbeb85985	-0.36005798
112	0xbe6a25eb	-0.22866027
113	0xbe226c38	-0.15861595
114	0xbe5f7f60	-0.21825933
115	0xbbcc0db1	-0.006227218
116	0x3e48ce24	0.19609886
117	0xbe98afe4	-0.29821694
118	0xbcc0610d	-0.023483777
119	0x3cea1924	0.028576441
120	0xbde9cc03	-0.11415865
121	0x3efb7140	0.4910984
122	0x3d987d5a	0.07445784
123	0x3e117f52	0.14208725
124	0x3ebd5776	0.3698079
125	0x3e218e24	0.15776879
126	0xbd620355	-0.05517896
127	0xbdf82391	-0.12116159
128	0x3d9b957a	0.0759687
129	0x3de391d9	0.111118026
130	0x3e6d4ee6	0.23174629
131	0xbe158033	-0.14599685
132	0xbda4ecc2	-0.080529705
133	0x3d23749d	0.039906133
134	0x3e6d21b0	0.23157382
135	0xbe8abaed	-0.27095738
136	0xbe39ef02	-0.1815758
137	0x3cdc3213	0.026879346
138	0x3d6cec15	0.057842333
139	0x3dd8f752	0.105940476
140	0xbead3a01	-0.33833316
141	0xbc78f834	-0.015195895
142	0x3cfdf6bf	0.031001447
143	0xbcb21ebf	-0.021743177
144	0x3df2b637	0.11851161
145	0x3e3c6e8b	0.18401544
146	0x3b198684	0.0023426125
147	0x3e151fe5	0.14562948
148	0x3ceb0415	0.02868847
149	0xbe3b61aa	-0.18298975
150	0x3ca6d5b8	0.02036558
151	0x3e175b60	0.1478095
152	0x3d6860b7	0.05673286
153	0x3e710a37	0.23539053
154	0x3c1f3fe9	0.009719827
155	0x3c692ed7	0.014232359
156	0xbd96d14c	-0.07364139
157	0x3e01187f	0.12607001
158	0x3d96d278	0.073643625
159	0xbdfe16c6	-0.124066874
160	0xbdc3a412	-0.09552778
161	0xbe99e847	-0.30060026
162	0xbdd7aa20	-0.10530496
163	0xbd95ff7c	-0.073241204
164	0x3e545217	0.2073444
165	0xbe4427f8	-0.19155872
166	0x3ce163a4	0.027513333
167	0x3e01481a	0.12625161
168	0xbdfd8be6	-0.12380199
169	0xbd84f9e0	-0.064929724
170	0x3d1c2fdf	0.03813159
171	0x3c2ebe49	0.010665485
172	0x3e1ff758	0.15621698
173	0xbdd5dc58	-0.10442418
174	0x3d973a16	0.07384126
175	0x3e044e05	0.12920387
176	0xbe320366	-0.17384109
177	0xbd5e4a28	-0.05426994
178	0x3db1e619	0.08686466
179	0x3e8348ea	0.25641567
180	0x3c3d1ed7	0.011542997
181	0x3ad00e24	0.0015873355
182	0xbdf44004	-0.119262725
183	0x3c937e43	0.018004542
184	0xbc12e588	-0.008965857
185	0xbdcee8ca	-0.10102995
186	0xbe822c0a	-0.25424224
187	0xbe640213	-0.22266416
188	0xbec7f755	-0.39055887
189	0xbdfaef86	-0.12252717
190	0x3e62621c	0.22107738
191	0x3eb9f50f	0.36319777
192	0x3d69d598	0.057088464
193	0x3ec0c1e7	0.37647936
194	0xbe4034b1	-0.187701
195	0xbe936424	-0.2878734
196	0x3d610709	0.05493835
197	0x3e3571fd	0.17719264
198	0xbe0a1602	-0.13484958
199	0x3e274530	0.16334987
200	0xbd512b44	-0.051066652
201	0x3e38db92	0.1805251
202	0x3d294698	0.04132709
203	0x3d8a8bdf	0.067649595
204	0x3bb1405d	0.005409284
205	0xbe64c419	-0.2234043
206	0x3e200ab1	0.15629078
207	0xbd9942cb	-0.07483443
208	0xbe300f01	-0.17193224
209	0xbe0eb1e6	-0.1393505
210	0x3e50aa6e	0.20377514
211	0x3e8a24f5	0.2698132
212	0xbed36b65	-0.41292873
213	0x3e1835f3	0.1486433
214	0xbd96853f	-0.073496334
215	0x3db2e70d	0.08735476
216	0xbdfc1bda	-0.1231
217	0xbeb3d68f	-0.35124633
218	0x3d44419a	0.047914125
219	0xbe9d1260	-0.30678082
220	0xbe30c5c3	-0.1726294
221	0x3d14b422	0.0363046
222	0xbe3aab99	-0.18229522
223	0xbe6277bb	-0.22115986
224	0xbe80aec3	-0.25133333
225	0xbea60d66	-0.32432097
226	0xbe711923	-0.23544745
227	0xbd1c6ec7	-0.038191583
228	0x3ceb2e3e	0.028708573
229	0x3b7feaa5	0.003904977
230	0x3d4a9741	0.049460653
231	0x3d8bfeaf	0.068356864
232	0xbe42ab73	-0.19010715
233	0x3e1094ef	0.14119314
234	0xbc8555f1	-0.016276332
235	0xbd9af823	-0.075668596
236	0x3e3b6c15	0.18302949
237	0xbe969b99	-0.29415587
238	0xbcbc37fb	-0.022975912
239	0xbe997904	-0.2997514
240	0xbf08ea82	-0.5348283
241	0x3dbb3b81	0.09142209
242	0x3c513447	0.012768812
243	0xbe790209	-0.24317183
244	0x3e05881c	0.13040203
245	0x3db0dfe9	0.086364575
246	0xbe874d97	-0.26426384
247	0xbdb0da17	-0.08635347
248	0xbd10b95b	-0.03533302
249	0xbe066790	-0.13125443
250	0x3d35cc26	0.044384144
251	0x3df9e6e9	0.12202246
252	0xbd277e91	-0.040892188
253	0xbe6b4e28	-0.22979033
254	0xbeb0c4a4	-0.34525025
255	0x3df93548	0.12168366

bias f4 [64]
0	0xbca434e2	-0.020044748
1	0xbc6d7b29	-0.014494696
2	0xbc65c44e	-0.0140238535
3	0x3c4f8015	0.0126648145
4	0xbcb43e18	-0.022002265
5	0x3c5541b7	0.013016156
6	0xbbccb7f1	-0.0062475135
7	0x3c456cde	0.012049882
8	0x376e0453	1.4186912e-05
9	0xb9790ea7	-0.00023751949
10	0x3b98bf6d	0.0046614916
11	0x3c094807	0.008378989
12	0xbc58c33d	-0.013230142
13	0x3c36d283	0.011158588
14	0xbc487be6	-0.012236571
15	0x3af39ceb	0.0018586194
16	0x3c953cf6	0.018217545
17	0x3cf3d392	0.02976397
18	0xbcad1349	-0.02112736
19	0xbbc6e6ec	-0.0060700085
20	0x3cac78e8	0.021053746
21	0x3c059d27	0.008155144
22	0xba0b7b42	-0.0005320796
23	0xbc15ab2f	-0.009135052
24	0x3cd1b1d0	0.025597483
25	0xbb57a22c	-0.0032903058
26	0xbb68cb2f	-0.0035521497
27	0x3cc01dc8	0.0234517
28	0xbcbfb3ee	-0.023401227
29	0xbc434f20	-0.01192072
30	0xbc10436c	-0.008805137
31	0x3b119322	0.0022212942
32	0xbc992c26	-0.01869781
33	0xbbb44207	-0.005501035
34	0xbbde3f48	-0.006782446
35	0xbc3326bb	-0.010934527
36	0xbc0127aa	-0.007882992
37	0x3cc53696	0.02407388
38	0x3c1d2281	0.009590746
39	0xbbdf564c	-0.0068157073
40	0x3c232aa0	0.009958893
41	0x3c00a2f2	0.007851349
42	0xbc47fc59	-0.01220616
43	0x3b372f8c	0.0027951924
44	0xbc8c5c8e	-0.017133977
45	0xbca9a6e4	-0.020709462
46	0x3c5813ee	0.013188345
47	0x3b879691	0.004137822
48	0xbc99d927	-0.018780304
49	0x3c16b762	0.009198995
50	0x3c89bca4	0.016813584
51	0xbc725e98	-0.014793061
52	0xbb862cf8	-0.004094716
53	0xbaa215a3	-0.0012366067
54	0xbc53b17a	-0.012920732
55	0xbc3f62b4	-0.0116812475
56	0x3c91c10b	0.017792245
57	0xbcc69ad6	-0.024243753
58	0xbc8a1ae4	-0.016858526
59	0x3c50eb5b	0.012751426
60	0x3c1f9b84	0.009741668
61	0xbcb5a774	-0.022174574
62	0x3bb53715	0.005530248
63	0xbc5ab804	-0.013349537

weight f4 [64, 64]
0	0x3e1f2944	0.15543085
1	0xbe3cb4a2	-0.18428281
2	0xbc37a6de	-0.011209218
3	0x3c0b21c2	0.008491935
4	0xbeab2b8a	-0.33431655
5	0xbe3cfd32	-0.18455961
6	0x3ccde1ab	0.025132021
7	0xbdb892da	-0.09012385
8	0x3e90cdce	0.28282017
9	0xbeb9c512	-0.36283165
10	0x3da8a784	0.08235076
11	0x3d9736f8	0.07383531
12	0x3d765d89	0.060147796
13	0xbdcbbc12	-0.09947981
14	0x3d685f8b	0.056731742
15	0xbdefa126	-0.117006585
16	0xbe397f30	-0.18114924
17	0x3d1a7c11	0.037715975
18	0x3d017005	0.03160097
19	0x3e309a68	0.17246401
20	0x3d01b5b7	0.031667437
21	0x391c06c4	0.0001487984
22	0x3d0b5733	0.034018707
23	0xbe1145de	-0.14186808
24	0x3f099004	0.53735375
25	0xbe5555ce	-0.20833513
26	0xbd082fd3	-0.033248734
27	0x3e923e6a	0.28563243
28	0x3e8c4572	0.27396733
29	0xbe5bc4b2	-0.21461752
30	0xbe3abf38	-0.18237007
31	0x3e6558aa	0.22397104
32	0xbda43108	-0.080171645
33	0xbe34554c	-0.17610663
34	0xbe3c4544	-0.18385798
35	0xbd849f64	-0.06475714
36	0xbdf9d436	-0.12198679
37	0xbe4bdd46	-0.19908628
38	0xbe8cc068	-0.27490544
39	0xbe9f3580	-0.31095505
40	0x3d905e7c	0.070492715
41	0x3e51f4ca	0.20503536
42	0x3deaea38	0.11470455
43	0x3ea316ec	0.31853426
44	0xbd39a70d	-0.045325328
45	0x3e73db46	0.23814115
46	0xbe4cf0fa	-0.200138
47	0x3e89271a	0.26787645
48	0xbe9ff6e6	-0.31243056
49	0x3d64e3dd	0.05588137
50	0xbe12536e	-0.14289638
51	0xbd8eec0a	-0.06978615
52	0x3e5abe14	0.21361572
53	0x3e9b143a	0.3028887
54	0xbd5d41d3	-0.054017853
55	0x3e4aa698	0.19790113
56	0x3dd37b8e	0.103263006
57	0xbe0b0980	-0.13577843
58	0xbe33dc86	-0.17564592
59	0xbd50a073	-0.050934266
60	0xbe6070ce	-0.21918032
61	0xbe067ff4	-0.13134748
62	0x3e2f0aa0	0.17093897
63	0xbdae8500	-0.085214615
64	0x3c7d45f7	0.015458575
65	0x3d3efa39	0.04662535
66	0x3e55e93e	0.20889756
67	0x3e6df9d2	0.2323983
68	0x3dddb0b3	0.10824718
69	0x3d548991	0.051889006
70	0x3e6a36c4	0.22872454
71	0x3db0e231	0.086368926
72	0xbdcfd6a3	-0.101483606
73	0x3dedbba9	0.11608059
74	0xbe864a87	-0.26228735
75	0x3e1ae6a6	0.15127048
76	0xbe0176f7	-0.12643038
77	0xbe1ea570	-0.15492797
78	0x3db85013	0.08999648
79	0x3e9c03e1	0.3047171
80	0xbdbd20ff	-0.09234809
81	0xbdb3a6f1	-0.08772076
82	0xbe276d1e	-0.16350219
83	0x3e47a090	0.19494843
84	0x3de0071b	0.10938855
85	0x3e500b9a	0.20316926
86	0xbcee3445	-0.029077658
87	0xbe4560d2	-0.19275215
88	0xbe496498	-0.1966728
89	0x3d466f0f	0.048445757
90	0xbe7a5b66	-0.24448928
91	0xbd5b2807	-0.05350497
92	0xbebf6d4f	-0.37388083
93	0x3e9f24b1	0.3108268
94	0xbf046dd4	-0.51730084
95	0x3d06e791	0.032935683
96	0xbe2a437e	-0.16627309
97	0xbd9880e3	-0.07446458
98	0xbbdf6611	-0.006817587
99	0xbdcf3549	-0.10117585
100	0x3d826009	0.063659735
101	0x3e3b2d00	0.18278885
102	0x3cf22ae5	0.02956147
103	0xbebec0cb	-0.37256464
104	0x3bbb366b	0.0057132742
105	0x3ed258ad	0.4108328
106	0x3d98ab63	0.074545644
107	0x3e934db3	0.28770217
108	0xbe142c9e	-0.14470145
109	0x3bd3fc95	0.006469319
110	0xbec2dc7d	-0.38058844
111	0x3e84fec7	0.2597563
112	0x3d7c457b	0.0615897
113	0x3d12a189	0.035798583
114	0x3d05c32d	0.032656837
115	0xbd99fb23	-0.07518604
116	0xbd8bfe71	-0.0683564
117	0xbc2002b5	-0.00976627
118	0x3dc36ea5	0.09542588
119	0x3c86eae3	0.016469425
120	0x3e38e87e	0.18057439
121	0x3e52291c	0.20523494
122	0xb9c636da	-0.0003780637
123	0x3da2779d	0.07932971
124	0x3c708ecd	0.014682484
125	0xbd8419bf	-0.06450223
126	0xbdb66a2f	-0.08906972
127	0x3ca7b5eb	0.020472487
128	0x3ea48ba9	0.32137802
129	0x3d810209	0.06299216
130	0x3dfd4cc5	0.12368158
131	0x3e307215	0.17231019
132	0xbd79c742	-0.060981043
133	0x3ecfd109	0.4058917
134	0xbdbefe8b	-0.09325894
135	0x3e5ef481	0.21772958
136	0xbc039540	-0.008031189
137	0xbe7e579d	-0.2483811
138	0xbe4c4533	-0.19948272
139	0x3da306bd	0.079602696
140	0x3e1b69a5	0.15177019
141	0x3dbb833f	0.091558926
142	0xbc9e190f	-0.019299058
143	0xbc9da315	-0.019242803
144	0x3e69fb2b	0.22849719
145	0x3e99fafd	0.300743
146	0xbe9a77d7	-0.30169556
147	0x3d3d69de	0.04624354
148	0xba48f1b8	-0.00076654134
149	0x3e873163	0.26404867
150	0xbd92faed	-0.071767665
151	0x3eadeb5f	0.33968636
152	0x3cf3b0f5	0.029747466
153	0x3e85ec73	0.2615696
154	0x3cc904ef	0.024538485
155	0x3e771ce1	0.2413211
156	0x3cc13ed7	0.023589535
157	0xbd8575dd	-0.06516621
158	0x3cb40f79	0.021980034
159	0x3d865c05	0.0656052
160	0xbe1d0221	-0.15332843
161	0x3d7715d6	0.06032356
162	0x3ef9279d	0.48663035
163	0x3d4451e0	0.047929645
164	0x3d8bedf9	0.06832499
165	0x3d8ab86d	0.06773458
166	0x3ea85719	0.3287895
167	0xbd975713	-0.07389655
168	0xbdb2568d	-0.087079145
169	0xbd952167	-0.072817616
170	0x3e0dc05e	0.13842914
171	0x3e88ca27	0.2671673
172	0x3e0ffe21	0.14061786
173	0x3cd0931b	0.02546077
174	0xbd984edf	-0.074369185
175	0xbcf80f91	-0.03028086
176	0xbe7b0df2	-0.24517038
177	0x3dfa18e5	0.122117795
178	0xbe1bbf09	-0.15209593
179	0x3d621d76	0.055203877
180	0x3e383cab	0.17991893
181	0x3d859509	0.06522567
182	0xbebc5861	-0.36786178
183	0xbd82d35f	-0.06387972
184	0x3c23091c	0.009950902
185	0x3e3a1191	0.18170764
186	0x3e34c6ff	0.17654036
187	0x3d706d06	0.058697723
188	0xbe59ce05	-0.21269996
189	0x3e1f07bf	0.15530299
190	0x3e9f1a8f	0.3107495
191	0x3c92ce07	0.017920507
192	0xbe98c177	-0.29835102
193	0x3e095361	0.13410713
194	0xbccb384b	-0.024807116
195	0xbd74215e	-0.059602134
196	0x3e4ae1e5	0.19812734
197	0xbc15b032	-0.0091362465
198	0xbe324fd5	-0.17413266
199	0xbe88ffed	-0.26757756
200	0x3e6b0a6f	0.22953199
201	0xbd88046b	-0.06641468
202	0x3e6d85bf	0.23195551
203	0x3d2d3446	0.04228618
204	0xbe01f5c6	-0.12691411
205	0xbd92561d	-0.07145331
206	0x3e31b75b	0.17355101
207	0xbde49799	-0.111617275
208	0xbe2986a1	-0.16555263
209	0x3d53d21c	0.051714048
210	0xbdcf103b	-0.101105176
211	0xbcdb301d	-0.02675634
212	0xbaede978	-0.0018151244
213	0xbdf126bd	-0.11774967
214	0xbdfea049	-0.12432916
215	0x3df4486f	0.11927878
216	0x3d013b24	0.03155054
217	0x3dffa02a	0.12481721
218	0xbde26add	-0.11055539
219	0xbdd25891	-0.10270799
220	0xbe646a51	-0.22306181
221	0x3d065124	0.032792225
222	0xbcab1b35	-0.020886997
223	0x3e94710b	0.28992495
224	0x3dbd3c3b	0.09240004
225	0x3ea2ca8d	0.3179516
226	0x3e6d0941	0.23148061
227	0xbe43fadf	-0.19138668
228	0x3d63f6a6	0.055655144
229	0xbdc03f07	-0.093870215
230	0xbebcaa1d	-0.36848536
231	0xbed828e1	-0.42218688
232	0xbe6ad8cf	-0.22934268
233	0xbd68a298	-0.056795686
234	0x3e190f9b	0.1494736
235	0xbacf8616	-0.0015832807
236	0x3ebae91b	0.3650597
237	0x3ddc0c77	0.10744565
238	0xbe1e345f	-0.15449665
239	0x3d805abb	0.062673055
240	0x3e7910bf	0.24322794
241	0x3c440fe0	0.0119666755
242	0xbe85502b	-0.26037726
243	0x3da5be77	0.08092969
244	0x3c880f35	0.016608814
245	0x3ec1c70b	0.3784717
246	0x3d76bf1e	0.060240857
247	0xbc637d54	-0.013884861
248	0x3dbf6487	0.09345346
249	0x3e7601db	0.24024145
250	0xbda5034f	-0.08057272
251	0xbeb3ab31	-0.35091546
252	0xbe30d41b	-0.17268412
253	0x3ec035b9	0.37540987
254	0x3e77e731	0.24209286
255	0x3ded3ef3	0.11584272

bias f4 [64]
0	0xbd481e13	-0.048856806
1	0xbd1d656f	-0.038426813
2	0xbc8434b3	-0.01613841
3	0xbd7c5baa	-0.061610855
4	0xbb0fcfdf	-0.002194397
5	0xbd1b491e	-0.037911527
6	0x3d7d5fc5	0.06185891
7	0x3d4e579a	0.050376512
8	0xbd68a8d0	-0.056801617
9	0xbcbb628b	-0.022874137
10	0xbd4f0ea4	-0.05055107
11	0x3d63dccb	0.055630486
12	0x3d861527	0.06547003
13	0x3d1db099	0.038498495
14	0x3d81e034	0.063415915
15	0x3d8441fa	0.064578965
16	0xbd4acd72	-0.049512334
17	0x3d9b8cc2	0.07595207
18	0xbc586df2	-0.013209807
19	0x3d1ef51f	0.038807984
20	0x3d1773d8	0.03697571
21	0x3d6407e9	0.055671606
22	0x3d83be91	0.06432832
23	0xbd629bb4	-0.05532427
24	0x3d44c115	0.0480357
25	0xbcdf3d7f	-0.027251003
26	0xbd7038a7	-0.058647778
27	0x3c977c35	0.018491844
28	0xbd2e0659	-0.042486522
29	0x3d72cca9	0.05927721
30	0xbbe40bcd	-0.0069594146
31	0x3d50f0fc	0.05101107
32	0x3d42679e	0.0474621
33	0x3d230035	0.03979512
34	0x3d4a35c5	0.049367685
35	0xbce2e415	-0.027696649
36	0xbd72aa93	-0.059244704
37	0x3d8f49e1	0.06996513
38	0x3c367be9	0.011137941
39	0x3d831059	0.063996024
40	0x3ce9d44d	0.028543616
41	0xbd29229b	-0.041292768
42	0x3d11f73e	0.03563618
43	0xbd1d7970	-0.03844589
44	0xbd391899	-0.045189474
45	0xbd964fb6	-0.073394224
46	0x3d931ac5	0.0718284
47	0x3d5c4433	0.053775977
48	0xbd720385	-0.059085388
49	0xbce1c375	-0.027559021
50	0xbb7d2e69	-0.00386324
51	0xbd3b9f89	-0.04580644
52	0x3d3abf5b	0.045592647
53	0xbca2fdd4	-0.019896425
54	0x3d3546de	0.044257037
55	0xbcf0eb93	-0.029409206
56	0xbd11cd46	-0.035596155
57	0xbd58bdf1	-0.052915517
58	0x3d1220b5	0.035675723
59	0xbd49b23c	-0.049242243
60	0xbd66c82d	-0.056343246
61	0x3d83db74	0.06438342
62	0xbc70e98f	-0.014704122
63	0xbd89838b	-0.06714543

weight f4 [64, 10]
0	0x3e86d0f0	0.26331282
1	0xbb94462e	-0.0045249676
2	0x3e08cff0	0.13360572
3	0x3df3e77f	0.11909389
4	0xbe5b09b4	-0.2139042
5	0x3b065ce2	0.002050214
6	0xbc0a7c9b	-0.00845256
7	0xbd927359	-0.07150907
8	0x3e6a028c	0.22852534
9	0x3d99256a	0.07477839
10	0x3e288eea	0.16460767
11	0xbd887ae2	-0.06664063
12	0x3d90fc23	0.07079341
13	0xbc058b5f	-0.008150904
14	0xbbf909be	-0.0076000383
15	0xbc90f559	-0.017695116
16	0x3eae0483	0.33987817
17	0xbd96a91c	-0.07356474
18	0x3d07643a	0.033054568
19	0xbc96cc6e	-0.018408027
20	0x3e11b22c	0.14228123
21	0xbcdd6570	-0.027025908
22	0xbd739809	-0.059471164
23	0xbeae7ef8	-0.34081244
24	0xbcc6740f	-0.024225263
25	0xbc49a591	-0.0123075405
26	0x3e998571	0.2998462
27	0x3f008e0e	0.5021676
28	0xbc6409f2	-0.013918387
29	0x3bf5e7a9	0.0075044227
30	0xbe26d4ba	-0.16292086
31	0x3e40687f	0.18789862
32	0x3e395376	0.18098244
33	0xbd1a46f6	-0.03766533
34	0x3d020c30	0.031749904
35	0xbea661df	-0.32496545
36	0xbe953167	-0.29139253
37	0xbe297ea2	-0.16552213
38	0xbdcedd82	-0.10100843
39	0x3d84a16b	0.064761005
40	0xbdba0421	-0.09082819
41	0xbeb82db7	-0.35972378
42	0xbb64e431	-0.0034926052
43	0x3ea230b3	0.3167778
44	0xbd536463	-0.051609408
45	0x3eaede59	0.34154013
46	0xbed2efb8	-0.41198516
47	0x3e7bac27	0.2457739
48	0x3e34661f	0.17617081
49	0x3e836464	0.2566253
50	0xbc4abc27	-0.012373961
51	0x3eba7f2e	0.36425155
52	0xbe2630a2	-0.1622949
53	0x3c395d5c	0.0113137625
54	0xbea4de38	-0.3220079
55	0xbe846abb	-0.2586268
56	0x3e37e0a0	0.17956781
57	0x3dcdfa98	0.100575626
58	0xbe997e48	-0.29979157
59	0x3c8054da	0.01566546
60	0x3e15df01	0.1463585
61	0xbebef365	-0.3729507
62	0x3e7aafc5	0.24481113
63	0xbe2a3e7c	-0.16625398
64	0x3d091f61	0.03347719
65	0x3e69f013	0.22845487
66	0x3d6007b2	0.05469484
67	0xbe29c9da	-0.16580907
68	0x3d8dc6cb	0.069226824
69	0xbe31ffdf	-0.17382763
70	0xbe8ef675	-0.27922407
71	0xbcfba723	-0.030719345
72	0x3e75f6d2	0.24019936
73	0xbd6451b9	-0.055742
74	0x3eaf05d6	0.3418414
75	0x3c9fc4f7	0.0195031
76	0xbd89a5c0	-0.067210674
77	0xbd13127b	-0.035906296
78	0x3e76e6ba	0.24111453
79	0xbebb41d6	-0.36573666
80	0x3eedce61	0.46446517
81	0x3dac6aeb	0.084188305
82	0xbd983ee2	-0.07433869
83	0x3e41fc09	0.189438
84	0xbdf6796c	-0.12034878
85	0x3e3134b3	0.1730526
86	0xbdc4b395	-0.09604565
87	0x3c9af09d	0.018913561
88	0x3e4458a7	0.19174443
89	0x3d3e9413	0.046527933
90	0x3c8128f3	0.015766596
91	0x3d43bdfa	0.047788598
92	0x3c974bc9	0.018468754
93	0xbd2c92e8	-0.04213229
94	0xbe8578e7	-0.26068804
95	0xbe0be68d	-0.13662167
96	0x3d8e1c87	0.06939035
97	0xbea9c96c	-0.33161485
98	0x3e7522e6	0.23939094
99	0x3d967396	0.07346265
100	0xbe0cb305	-0.13740166
101	0xbecca3e5	-0.39968792
102	0x3e5568fd	0.20840831
103	0x3d228ee3	0.03968705
104	0x3dba366a	0.0909241
105	0xbdc926d2	-0.098218575
106	0xbc0d5e76	-0.008628478
107	0xbbee28c1	-0.007268042
108	0x3edd1471	0.43179658
109	0xbe20f400	-0.15718079
110	0x3de15c94	0.11003986
111	0xbe85b5e7	-0.26115343
112	0xbe8fc6ea	-0.28081447
113	0x3ef4976b	0.47771773
114	0x3decf737	0.1157059
115	0xbdb581c8	-0.088626444
116	0x3e037111	0.128361
117	0x3da40c35	0.08010141
118	0x3e32d42f	0.17463754
119	0xbea0d99f	-0.31416032
120	0x3cf26fc5	0.029594311
121	0x3b42e974	0.00297412
122	0xbcc2ffdb	-0.023803642
123	0xbc1bfa1f	-0.009520083
124	0x3cc0318f	0.023461131
125	0x3e527951	0.20554091
126	0x3deaac5a	0.11458655
127	0x3ea87234	0.3289963
128	0xbda5983b	-0.08085676
129	0xbdf413d3	-0.11917844
130	0xbcf30c72	-0.02966902
131	0x3aab3b0c	0.0013063862
132	0xbe2f9bcf	-0.1714928
133	0x3da7ce72	0.08193673
134	0x3d04030a	0.03222946
135	0x3e91e8bd	0.28497878
136	0xbd6b195a	-0.057397224
137	0x3e131a5e	0.14365527
138	0x3d1ec1ab	0.038758915
139	0x3e7b7f67	0.24560319
140	0x3dac67a2	0.08418204
141	0xbea47289	-0.32118633
142	0xbe2e6bbd	-0.17033286
143	0x3db6ae9d	0.089200236
144	0x3ddda05f	0.10821604
145	0x3e4fa1df	0.20276593
146	0x3dbfd56e	0.0936688
147	0xbeadbf62	-0.33935076
148	0x3e0019df	0.12509869
149	0x3b0bba80	0.002132088
150	0xb949d8c8	-0.00019249611
151	0xbe9485d1	-0.29008344
152	0xbcb04c01	-0.021520616
153	0xbddaa121	-0.10675264
154	0x3c723cc0	0.014784992
155	0xbd29d60f	-0.041463908
156	0xbd7c0a59	-0.061533306
157	0x3dbc73e4	0.09201792
158	0x3d86e6c9	0.065869875
159	0x3d94fbf2	0.07274617
160	0x3dad96e7	0.08476048
161	0xbd3de04e	-0.04635649
162	0xbc0d0f72	-0.0086096395
163	0xbecd22ff	-0.40065762
164	0xbe7a227e	-0.2442722
165	0x3cb970b1	0.022636743
166	0xbe3421f0	-0.17591071
167	0xbd572fe2	-0.0525359
168	0xbd7d4c48	-0.061840326
169	0x3e2fa829	0.17153992
170	0xbd91c08e	-0.07116805
171	0xbc31aeaf	-0.0108448705
172	0xbd132477	-0.035923447
173	0xbe00df00	-0.12585068
174	0x3dee6af4	0.116414934
175	0x3e6cbebe	0.23119637
176	0xbc826efa	-0.015922058
177	0xbe3b74c8	-0.18306267
178	0xbe20596a	-0.15659109
179	0x3e4a86c4	0.19777972
180	0xbd6494e2	-0.05580605
181	0xbc2b0f6b	-0.010440688
182	0xbe381c19	-0.17979468
183	0xbd9319be	-0.07182644
184	0xbe88877d	-0.2666587
185	0x3daae324	0.08344105
186	0xbe1c53ab	-0.15266292
187	0xbe1194bb	-0.14216892
188	0x3e4f8de1	0.20268966
189	0x3de532ad	0.11191306
190	0xbe470d11	-0.19438578
191	0x3e3a41fb	0.18189232
192	0xbe27a545	-0.16371639
193	0xbdb8517b	-0.08999916
194	0x3e665642	0.22493842
195	0x3cf04248	0.02932848
196	0x3dd13acd	0.102162935
197	0x3e82c4f2	0.25540882
198	0x3c7f3a58	0.015577875
199	0xbe2007f3	-0.15628032
200	0xbb444e63	-0.0029953949
201	0xbeb157a6	-0.34637183
202	0xbe58c89b	-0.21170275
203	0xbe3890c5	-0.18023975
204	0xbe3cece4	-0.18449742
205	0xbc07493e	-0.008257208
206	0xbdb817d4	-0.0898892
207	0xbe2fde81	-0.17174722
208	0xbe7b8670	-0.24563003
209	0x3b90dc3b	0.004420785
210	0xbeeab0f0	-0.45838118
211	0xbda59116	-0.080843136
212	0xbe81cdfe	-0.25352472
213	0x3d494f0f	0.04914766
214	0xbdb7eb66	-0.089804456
215	0xbe24ca0f	-0.16092704
216	0xbdddc2b9	-0.10828156
217	0x3d7977d4	0.060905293
218	0x3e366d87	0.17815219
219	0xbe3099f2	-0.17246225
220	0x3d617807	0.055046108
221	0xbddcfaf6	-0.107900545
222	0xbe20800e	-0.15673849
223	0x3eb54ba1	0.35409263
224	0x3e0f4a17	0.13993107
225	0x3d81c505	0.063364066
226	0xbdd5b60a	-0.10435112
227	0xbd40ced1	-0.047072235
228	0xbed2ea24	-0.4119426
229	0x3d6ec6ea	0.058295168
230	0x3dbbe2db	0.091741286
231	0xbe6480e5	-0.22314794
232	0x3e83bf70	0.25731993
233	0xbdc1438e	-0.09436713
234	0x3c9a702e	0.01885232
235	0x3e81a5d2	0.25321823
236	0x3d6e6090	0.058197558
237	0x3e44c3ed	0.19215365
238	0x3d9f3326	0.07773428
239	0x3ed296bd	0.4113063
240	0x3e436623	0.19081931
241	0xbdd3e716	-0.103468105
242	0xbd54dc9e	-0.05196821
243	0x3eacb709	0.33733395
244	0xbe57b961	-0.2106681
245	0x3c1df58c	0.0096410625
246	0x3ce57d30	0.028013796
247	0xbe02a019	-0.12756385
248	0xbbc43e25	-0.0059888535
249	0x3d93ebfa	0.07222743
250	0xbe8e8de5	-0.27842632
251	0xbe621bdb	-0.22080939
252	0x3dc4dd1c	0.09612486
253	0xbdb0188c	-0.08598432
254	0xbe583307	-0.21113215
255	0x3d28372d	0.041068245

bias f4 [64]
0	0x3d0b6aee	0.034037523
1	0xbb8989c4	-0.004197331
2	0x3c24b8fc	0.010053869
3	0xbd5b9263	-0.053606402
4	0x3d434853	0.047676396
5	0x3ca7ac0a	0.020467777
6	0x3cacecfd	0.021109099
7	0x3cdbe7ba	0.026843894
8	0x3cdd221f	0.02699381
9	0xbcf87087	-0.030327095
10	0x3c947745	0.018123278
11	0x3d232aa4	0.039835587
12	0xbca95c7f	-0.020673988
13	0xbc91a4dc	-0.017778806
14	0xbc8687ce	-0.016422179
15	0x3d11de8e	0.035612635
16	0xbced9c0f	-0.029005079
17	0x3c3d1f53	0.011543113
18	0x3ce6e686	0.028186094
19	0xbca0041c	-0.01953321
20	0x3ce48a96	0.027898114
21	0xbcdb2ca3	-0.026754683
22	0x3d1f627f	0.038912293
23	0x3d2b6094	0.04184015
24	0x3cc665e4	0.024218507
25	0x3ce22211	0.027604135
26	0x3cf26ec9	0.029593842
27	0x3d12326a	0.03569261
28	0xbd09e287	-0.0336633
29	0x3d24b7f8	0.04021451
30	0x3cd81116	0.026375335
31	0xbc8874b3	-0.016657209
32	0x3ca72d46	0.02040733
33	0xbd2003e7	-0.03906622
34	0xbd33ef64	-0.043929473
35	0x3cbd5c8d	0.02311542
36	0xbc8db725	-0.017299244
37	0x3cec6e36	0.028861146
38	0xbd0c0f7f	-0.034194466
39	0x3ce9c681	0.028537037
40	0xbca3c449	-0.019991057
41	0xba82f8e4	-0.0009992388
42	0xbcbc2952	-0.022968922
43	0x3ceb0b62	0.028691951
44	0xbc2191ee	-0.0098614525
45	0xbcb0fbc0	-0.021604419
46	0xbcfbc2bb	-0.030732503
47	0xbcefbb5d	-0.029264146
48	0xbcfeae5e	-0.031089004
49	0x3c913d29	0.017729359
50	0x3d0e68bb	0.034767848
51	0x3cc81ecc	0.024428748
52	0xbd0c0280	-0.03418207
53	0x3cc60ab8	0.024175033
54	0xbd2af82c	-0.04174058
55	0xbd068759	-0.03284392
56	0xbb0f453d	-0.0021861338
57	0xbd1ef907	-0.03881171
58	0x3c2e117f	0.010624289
59	0x3d06441c	0.032779798
60	0xbcce135f	-0.025155721
61	0xbd2e475b	-0.04254852
62	0x3cbf3806	0.023342144
63	0x3c945dd0	0.01811114

weight f4 [64, 64]
0	0x3e5e7839	0.21725549
1	0x3c809f1e	0.015700873
2	0xbe342b2d	-0.17594595
3	0xbdf91cec	-0.121637195
4	0x3e7cb0df	0.24676846
5	0xbe103b55	-0.14085133
6	0x3e70f541	0.23531057
7	0x3ce5cabb	0.028050771
8	0xbedaa585	-0.42704406
9	0xbccf6d35	-0.025320629
10	0xbc45ecca	-0.012080381
11	0x3db9bf8c	0.09069738
12	0xbe7ff42f	-0.24995492
13	0xbd38af79	-0.04508922
14	0xbba6a447	-0.0050855014
15	0x3dd2c532	0.10291518
16	0x3e132df9	0.14373006
17	0x3ef44853	0.4771143
18	0xbdc10ad4	-0.094258934
19	0xbe30207d	-0.17199893
20	0x3ce59ce1	0.028028907
21	0xbbdf09eb	-0.0068066022
22	0x3e9315b7	0.28727505
23	0x3dc15700	0.09440422
24	0xbd98faa2	-0.074696794
25	0x3b0a2397	0.0021078342
26	0x3de4f0ea	0.11178763
27	0xbcc9b579	-0.024622666
28	0xbbfe396b	-0.0077583096
29	0x3e94ea73	0.2908512
30	0x3e2b54a9	0.16731514
31	0xbef880c5	-0.48535743
32	0x3d5122df	0.051058646
33	0xbe626175	-0.2210749
34	0x3d6ab433	0.057300758
35	0xbdd6c0c0	-0.10485983
36	0x3db00ff2	0.08596791
37	0xbeb3e6e5	-0.35137096
38	0xbd7b31d3	-0.061326813
39	0x3e37a609	0.17934431
40	0x3e56b53f	0.20967577
41	0x3e9fee9b	0.3123673
42	0x3e8d33e5	0.27578655
43	0xbe8f6d4f	-0.28013083
44	0x3e51d9c7	0.20493232
45	0xbd6cf5ef	-0.057851728
46	0x3d9a35ce	0.07529794
47	0x3e242d9d	0.16033025
48	0xbdeb0ede	-0.11477445
49	0xbe9c6d9d	-0.30552378
50	0xbda6fc12	-0.08153547
51	0x3e4ff73f	0.2030916
52	0x3d894194	0.06701961
53	0xbbf1fdfd	-0.007385014
54	0xbeb1b5dd	-0.34709063
55	0xbe17cfcf	-0.14825366
56	0xbd440729	-0.04785839
57	0x3d608a69	0.0548195
58	0xbd2d971f	-0.04238045
59	0xbeab3edf	-0.33446404
60	0xbe2de341	-0.16981222
61	0xbefbb929	-0.49164703
62	0x3df0a7f0	0.117507815
63	0xbd94d6ec	-0.072675556
64	0x3e7d51de	0.24738261
65	0x3e09d4c4	0.1346007
66	0x3dc3632a	0.095403984
67	0xbf0eccca	-0.55781233
68	0x3e8aa6d6	0.2708041
69	0x3eec7938	0.46186233
70	0x3ce9c641	0.028536918
71	0x3ea803d6	0.32815427
72	0x3df43d6a	0.11925776
73	0x3eb9d7ba	0.362974
74	0x3dc82aba	0.097737744
75	0x3e872fa6	0.2640354
76	0x3da7536c	0.08170208
77	0xbd5c1e69	-0.05373994
78	0x3dad3672	0.0845765
79	0xbdf10d4e	-0.11770116
80	0x3e299420	0.16560411
81	0x3ec58d6a	0.38584453
82	0x3e125a40	0.1429224
83	0xbe90d9dc	-0.28291214
84	0x3e5cd7ba	0.21566668
85	0x3e1512ca	0.14557949
86	0x3e854222	0.26027018
87	0x3da9aee2	0.082853094
88	0x3d77e8a9	0.060524616
89	0xbe529648	-0.2056514
90	0x3e0d1668	0.13778079
91	0x3d631569	0.05544034
92	0x3e417620	0.18892717
93	0x3b9c214a	0.0047647106
94	0xbe00968c	-0.12557429
95	0xbe1d9f50	-0.15392804
96	0xbed2dcc6	-0.41184062
97	0xbd89db38	-0.06731266
98	0xbdebfcec	-0.115228504
99	0x3e09992e	0.1343734
100	0xbd3440c1	-0.044007067
101	0xbdfe23fa	-0.12409206
102	0xbc9f031b	-0.01941066
103	0xbde7b9f0	-0.11314762
104	0xbd94ffb4	-0.07275334
105	0x3e09cafc	0.13456339
106	0xbdee9528	-0.11649543
107	0x3dff4b5a	0.12465544
108	0x3dd01eca	0.101621225
109	0x3d0016a1	0.03127158
110	0xbe5b7ad6	-0.21433577
111	0xbc4956e2	-0.012288781
112	0xbd5a446b	-0.053287905
113	0xbb2615b9	-0.0025342538
114	0xbe4ec5e2	-0.20192674
115	0x3b301659	0.002686879
116	0x3e1d8df8	0.15386188
117	0x3da1b376	0.078955576
118	0x3d96418e	0.07336722
119	0xbe2e2f72	-0.17010286
120	0xbe05f892	-0.13083103
121	0xbe9bbf68	-0.3041947
122	0x3e25e9e4	0.16202503
123	0x3e2a1562	0.1660972
124	0xbe66118e	-0.22467634
125	0xbdfa9c28	-0.12236816
126	0x3db57cf2	0.08861722
127	0x3e31de82	0.17370036
128	0xbe2fd71b	-0.171719
129	0xbe38e515	-0.18056138
130	0x3e400a2f	0.18753885
131	0x3ead95ba	0.33903295
132	0xbec76b72	-0.38949162
133	0xbda08228	-0.07837325
134	0xbd8b7118	-0.0680868
135	0x3e2987a9	0.16555656
136	0x3c9230d3	0.017845547
137	0x3e426469	0.18983616
138	0xbe81354c	-0.25235975
139	0x3eb06686	0.3445322
140	0xbe4defc1	-0.2011099
141	0x3d091527	0.033467438
142	0xbe136ea5	-0.14397676
143	0xbdcfcc76	-0.1014642
144	0x3cc3e065	0.02391071
145	0x3df5308e	0.11972152
146	0xbe4e3d97	-0.20140682
147	0x3e1fe137	0.15613256
148	0xbe2cef73	-0.16888218
149	0xbe59ecbd	-0.21281715
150	0xbeb25314	-0.3482901
151	0xbe83e946	-0.2576391
152	0xbdb6e1bc	-0.08929774
153	0x3e5b8d63	0.21440654
154	0xbdef8f5c	-0.116972655
155	0x3b84342f	0.004034541
156	0x3e0d0a97	0.13773571
157	0xbe25d137	-0.1619309
158	0xbe827342	-0.2547856
159	0x3e68f50b	0.22749726
160	0xbd22cb7f	-0.03974485
161	0xbdb0cba6	-0.08632593
162	0x3d687cfd	0.056759823
163	0x3e01dbbb	0.12681477
164	0x3eba75e8	0.3641808
165	0x3d98a344	0.074530154
166	0x3dbc5cb0	0.09197366
167	0xbf26cc07	-0.6515507
168	0xbe45655b	-0.19276945
169	0xbe50ce1b	-0.20391123
170	0xbc81ca93	-0.015843665
171	0x3e15e94f	0.14639781
172	0x3eb98270	0.36232328
173	0x3d808210	0.062748075
174	0x3e962fb6	0.29333276
175	0xbd8647f6	-0.06556694
176	0xbd5527e3	-0.052039992
177	0xbe7a2e79	-0.2443179
178	0x3d08332d	0.03325193
179	0xbe7a1df9	-0.24425496
180	0x3e28701f	0.16449021
181	0xbb9651e5	-0.0045873993
182	0x3d73a1ab	0.05948035
183	0xbd66f373	-0.056384515
184	0xbe476d53	-0.19475298
185	0x3e7c87b3	0.2466114
186	0x3ced2dd5	0.028952518
187	0xbdf037e2	-0.11729409
188	0xbda417d2	-0.08012356
189	0x3d2f58b3	0.0428092
190	0xbd495471	-0.049152795
191	0xbdf2ca3e	-0.11854981
192	0xbc9c2ad9	-0.0190634
193	0xbd1865a4	-0.037206307
194	0xbc4008d0	-0.011720851
195	0xbe986ff3	-0.2977291
196	0xbce17ef1	-0.02752635
197	0x3d9707c2	0.073745266
198	0x3e026de6	0.12737235
199	0xbe9fba93	-0.31197032
200	0x3e5d9012	0.2163699
201	0xbe0f6e96	-0.14007029
202	0xbc3603c8	-0.0111093
203	0x3d5e3b74	0.054255918
204	0x3ca7fcf1	0.020506354
205	0x3e710aa6	0.23539218
206	0xbdb41b28	-0.08794242
207	0xbdce5100	-0.10074043
208	0xbe8c83bb	-0.27444252
209	0xbe82c9db	-0.25544629
210	0x3cc10ff5	0.02356718
211	0xbe6864bc	-0.22694677
212	0xbeee6aff	-0.46566007
213	0xbea97ce1	-0.33103088
214	0xbde56d3a	-0.11202474
215	0x3d3f2cc4	0.04667355
216	0xbe4e2208	-0.2013017
217	0xbea92865	-0.3303863
218	0xbd432a64	-0.04764785
219	0x3e2f3056	0.17108282
220	0xbd470d60	-0.04859674
221	0xbd6fa294	-0.058504656
222	0x3cc68cf9	0.024237143
223	0xbe6aabc0	-0.2291708
224	0x3e5a1f0a	0.21300903
225	0x3c2d7610	0.01058723
226	0x3dc00602	0.09376146
227	0x3e0bd5e2	0.13655809
228	0x3da55e3e	0.08074616
229	0x3e9cc9e5	0.30622783
230	0xbc96421b	-0.018342068
231	0xbecb853b	-0.39750084
232	0x3e2e5b60	0.17027044
233	0xbef08b77	-0.46981403
234	0xbcd25167	-0.025673581
235	0xbea752f3	-0.32680473
236	0x3ef8c615	0.48588625
237	0x3e82050b	0.25394472
238	0x3de5fb42	0.11229564
239	0xbc918bc1	-0.017766835
240	0x3d678e32	0.056532092
241	0x3e383770	0.17989898
242	0x3e368f7a	0.1782817
243	0x3e0e5978	0.13901317
244	0xbdfb41d4	-0.12268415
245	0x3d32a4ca	0.043614186
246	0x3e38c828	0.18045104
247	0x3df712c8	0.12064129
248	0xbe638a5a	-0.22220746
249	0x3eb50165	0.35352626
250	0x3e18a80a	0.14907852
251	0x3e0bb82e	0.13644478
252	0x3e0fe5d2	0.14052513
253	0x3eb84d77	0.359966
254	0xbc1abea4	-0.009444866
255	0xbc9ee6af	-0.019397108

bias f4 [64]
0	0x3d792065	0.06082191
1	0x3d60bfd9	0.05487046
2	0xbda338f0	-0.07969844
3	0xbd92127c	-0.07132432
4	0x3daffe28	0.08593398
5	0x3d7c5858	0.06160769
6	0x3d750019	0.059814546
7	0x3d4bdae0	0.049769282
8	0xbd9cc7a3	-0.07655265
9	0x3d85ff47	0.06542831
10	0x3d5f8ade	0.054575793
11	0xbd563c7c	-0.052303776
12	0xba083f80	-0.00051974505
13	0x3d8f337e	0.06992243
14	0xbdb5d585	-0.08878616
15	0x3d7cfca6	0.06176438
16	0x3daf6965	0.08565024
17	0x3d8face8	0.07015401
18	0x3d9dbb03	0.07701685
19	0x3da540c6	0.08068995
20	0x3d8738f0	0.06602657
21	0xbdc6da2e	-0.09709583
22	0x3d678e0e	0.05653196
23	0x3db2aecf	0.08724748
24	0xbd7853a8	-0.060626656
25	0x3c89646f	0.016771523
26	0xbd927276	-0.07150738
27	0xbd9f8d1e	-0.07790588
28	0x3c56af50	0.013103321
29	0xbd6947cd	-0.05695324
30	0x3dca12fb	0.098669015
31	0xbd718ed6	-0.05897411
32	0xbd2dd066	-0.042435072
33	0x3d939533	0.07206192
34	0x3d76f2ec	0.060290262
35	0xbd7f0686	-0.06226208
36	0xbd91c29c	-0.07117197
37	0x3d8a662f	0.06757771
38	0xbca5bfa1	-0.020232977
39	0xbd2f87ae	-0.042854004
40	0x3d388cc9	0.04505614
41	0x3dad25b3	0.08454456
42	0x3da323b7	0.079657964
43	0x3d552c1e	0.052044027
44	0x3dadbc8d	0.08483229
45	0xbdaab3fa	-0.08335109
46	0xbd76a6cf	-0.060217675
47	0xbdc49e2a	-0.0960048
48	0x3d4282ef	0.04748815
49	0xbd532a5a	-0.05155406
50	0x3d89b0df	0.067231886
51	0x3d804408	0.06262976
52	0x3d6397b5	0.0555646
53	0x3dac9a5a	0.08427878
54	0x3d895702	0.067060485
55	0x3dc86d46	0.09786467
56	0xbd9243f1	-0.07141865
57	0x3dae98be	0.08525227
58	0xbd917dc7	-0.07104068
59	0x3d8f4b18	0.06996745
60	0xbd8a7205	-0.06760029
61	0x3db348e7	0.087541394
62	0x3de810df	0.11331343
63	0xbda40d8c	-0.08010396

weight f4 [1, 64]
0	0xbe8ded80	-0.2772026
1	0xbdb075fb	-0.08616253
2	0xbe6b1ca5	-0.22960146
3	0x3f07e8e6	0.5308975
4	0x3dc1252a	0.094309166
5	0x3d1acea0	0.03779471
6	0x3e1d52d7	0.15363632
7	0xbe9747d4	-0.29546988
8	0x3e960877	0.29303333
9	0x3e0bd130	0.13654017
10	0xbe04681e	-0.12930343
11	0x3d8c5df5	0.068538584
12	0xac4b305c	-2.887488e-12
13	0xbe68d53d	-0.22737594
14	0xbe387e67	-0.18016969
15	0x3eb63d18	0.35593486
16	0x3eafc55e	0.34330267
17	0xbe2cfb1a	-0.16892663
18	0xbeabd15c	-0.33558166
19	0x3d175e90	0.036955416
20	0xbe8fa2ae	-0.28053802
21	0x3d80caa5	0.062886514
22	0x3db00b71	0.08595932
23	0xbe33db28	-0.1756407
24	0x3e67c5d6	0.22634062
25	0xbddf6753	-0.109083794
26	0xbe4d0ba7	-0.20023976
27	0x3dcd0f18	0.100126445
28	0x2ebdd85e	8.6331595e-11
29	0xbe0c6902	-0.13711932
30	0x3e12c14e	0.14331552
31	0xbec6b569	-0.3881028
32	0xbd3f3e9a	-0.04669056
33	0x3dcebc39	0.100944944
34	0xbdfc8195	-0.12329403
35	0x3dd508f3	0.104020976
36	0xbea4a58a	-0.32157546
37	0xbe573d9a	-0.21019593
38	0xbd441a01	-0.04787636
39	0x3e147deb	0.14501159
40	0x3dc1f732	0.09470977
41	0x3e560081	0.2089863
42	0xbe29db16	-0.16587481
43	0x3d6e7b77	0.058223214
44	0xbd7de468	-0.061985403
45	0x3dea16d5	0.11430136
46	0xbdff5fc8	-0.12469441
47	0x3db172a4	0.08664444
48	0xbd2fa6e2	-0.04288376
49	0x3ec6442a	0.3872388
50	0xbd848c69	-0.064720936
51	0xbd7137e2	-0.058891185
52	0xbdcb9c75	-0.09941951
53	0x3db65e85	0.08904747
54	0x3e4e1223	0.20124106
55	0xbe748acb	-0.2388107
56	0xbe057a41	-0.13034917
57	0xbe296517	-0.16542469
58	0x3dfdbcdc	0.12389538
59	0xbe454ded	-0.19268008
60	0x3e2e71df	0.17035626
61	0x3e685e0f	0.2269213
62	0x3ea79f22	0.32738596
63	0xbec498ca	-0.3839782

weight f4 [2, 64]
0	0x3e4384fc	0.19093698
1	0x3cb67470	0.022272319
2	0x3dafc079	0.08581633
3	0x3e7ac6dc	0.24489921
4	0x3c181356	0.009281954
5	0x3e50bc0f	0.20384239
6	0xbddf6552	-0.10907997
7	0xbe4ab3e3	-0.19795184
8	0x3e726623	0.23671775
9	0x3be6bc99	0.0070415256
10	0x3e27f2e8	0.16401255
11	0xbe50b2f2	-0.20380762
12	0xbdf12eec	-0.11776528
13	0xbdd99e4c	-0.10625896
14	0xbda5ad89	-0.0808974
15	0xbe0049ed	-0.125282
16	0x3e64961c	0.22322887
17	0xbdf237d7	-0.11827057
18	0x3e07451d	0.13209958
19	0xbe91476e	-0.2837481
20	0xbe84e6d8	-0.2595737
21	0xbece5a29	-0.40303162
22	0xbe271e15	-0.16320069
23	0x3e30aff1	0.17254616
24	0xbd104974	-0.0352263
25	0x3e189349	0.14899935
26	0x3e3b0706	0.18264398
27	0xbe0dcdd5	-0.1384805
28	0x3e1eef8b	0.15521066
29	0xbe1553fd	-0.1458282
30	0xbd21eb28	-0.039530903
31	0xbe34d28c	-0.17658442
32	0xbe72a404	-0.2369538
33	0xbe012c8a	-0.12614647
34	0xbe25e2ac	-0.1619975
35	0x3e1b8656	0.15187964
36	0x3ebf2c53	0.37338504
37	0xbdd0d78b	-0.101973616
38	0xbd5a51b7	-0.053300586
39	0xbdddbcd1	-0.108270295
40	0xbe82d5f5	-0.2555386
41	0x3ee6bdee	0.4506678
42	0xbdcf3e99	-0.101193614
43	0x3e7008ea	0.234409
44	0x3db3118c	0.08743581
45	0x3e9004a7	0.2812855
46	0xbe132b08	-0.14371884
47	0xbe3cd15b	-0.18439238
48	0x3dfbe356	0.1229922
49	0x3a72def6	0.0009264791
50	0x3b1bc419	0.0023768006
51	0x3d63f88e	0.055656962
52	0xbde21d02	-0.11040689
53	0x3ec799b7	0.38984463
54	0xbe5daa34	-0.21646959
55	0x3e2dd3b3	0.16975288
56	0x3e231dc1	0.15929319
57	0x3dd1f975	0.10252658
58	0xbe15fd9e	-0.14647529
59	0x3e3de468	0.18544161
60	0x3dff9b78	0.12480825
61	0xbdd415d6	-0.103557274
62	0x3da2bd72	0.0794629
63	0x3b07c694	0.0020717727
64	0x3ea2b413	0.3177801
65	0x3cc8dc9a	0.024519254
66	0x3c940593	0.018069064
67	0x3c26659e	0.010156063
68	0x3e062886	0.13101396
69	0xbdcb6c72	-0.09932794
70	0xbd22691d	-0.039651025
71	0x3d67bac7	0.05657461
72	0x3e82594c	0.25458753
73	0x3d0f61ba	0.03500531
74	0x3d6ecb23	0.058299195
75	0xbe1991a6	-0.14996967
76	0x3c468939	0.012117677
77	0xbe5ed48c	-0.21760768
78	0xbe555b6d	-0.20835657
79	0xbd68f1f8	-0.056871384
80	0x3d87118b	0.06595143
81	0xbd0c8dfe	-0.0343151
82	0xbd819ad2	-0.06328358
83	0xbe366df8	-0.17815387
84	0xbe27e9a3	-0.16397719
85	0xbe89b96e	-0.26899284
86	0xbdd0c156	-0.10193126
87	0x3de3b778	0.11118978
88	0xbeb4952c	-0.3527006
89	0xbdf9c98f	-0.121966474
90	0x3cc1c938	0.023655519
91	0x3da49391	0.080359586
92	0xbd6a2e4b	-0.057173055
93	0xbd607284	-0.05479671
94	0x3e5ef663	0.21773677
95	0x3b22d15b	0.0024844024
96	0xbddeaafe	-0.10872458
97	0xbd5685a6	-0.05237355
98	0xbe51fcc7	-0.20506583
99	0x3dbb8ad8	0.09157342
100	0x3dad6c90	0.08467972
101	0xbde53fd1	-0.11193813
102	0xbd6fb636	-0.05852338
103	0x3d5050da	0.050858356
104	0xbbfa00d4	-0.0076294933
105	0xbc321ec6	-0.010871595
106	0xbd8e259c	-0.06940767
107	0xbd4cae50	-0.049970925
108	0x3dc2eb29	0.095175095
109	0x3e93763d	0.28801146
110	0xbd71c793	-0.05902822
111	0xbd9b61f3	-0.07587042
112	0x3dd708e3	0.10499742
113	0x3d15f111	0.036606852
114	0x3d33d80f	0.04390722
115	0xbc2d1f21	-0.010566504
116	0xbd9109ac	-0.07081923
117	0x3e7b7d11	0.24559428
118	0x3dc458c6	0.09587245
119	0x3e4d4390	0.20045304
120	0xbcb969f6	-0.022633534
121	0x3dfded50	0.123987794
122	0xbd35260c	-0.044225737
123	0x3d526ec7	0.051375177
124	0x3e203a31	0.15647198
125	0xbda91b9c	-0.08257219
126	0x3d3ccb85	0.04609253
127	0x3e616486	0.22011003

bias f4 [2]
0	0xbe17acb5	-0.14811976
1	0xbd6663fc	-0.056247696

_bias f4 [2, 1]
0	0x41ee32ce	29.774807
1	0x41ee5b68	29.794632
