trained_models/ppo/Pendrogone-v0.pt (torch, 45758 bytes, 12 tensors)

weight f4 [64, 10]
00000000: 670a 1f3e e66f 853c 2ec9 a73d f2bc e7be
00000010: c5b9 5fbe 53d3 c53c d3a9 3bbe 507b c33a
00000020: 6671 bfbd 1f72 2d3d fb73 813e d535 e53b
00000030: b212 833e 2a69 cc3c ceb2 eebc 6eef 323e
00000040: d1de b1be 88b8 bfbd 0f07 203e be68 283d
00000050: 006f 56be e135 103e 91e8 733c 7158 84bc
00000060: 9099 07be 9adb 683e 2802 84bd a27f 78bc
00000070: 62c6 be3d d15f 513e 00ed 4fbe 76db 25be
00000080: 362b 8e3e 64ed a33d f112 303e e3cb 803d
00000090: 611a 003c 8b26 84bd bfa0 143e b38c 483e
000000a0: 1074 bd3d e35e 98bd ed42 14be b80f 0dbe
000000b0: 16ec 09bd efdb d93d 373f 7bbe 39e0 58be
000000c0: 0e84 313e 6fa0 c0bd 500b b63d 30ab a03e
000000d0: 6849 99be d4b3 b5be 837e 283e ece3 d5bd
000000e0: d52e 883e 75f1 a83d 75be 823d 2983 7c3e
000000f0: 4580 553e fffa 2ebe 0d44 423e 0136 21bd
00000100: 68fb 26be c52b 763d 1251 5f3c 1912 f8bb
00000110: 53c7 10bd 9af4 9bbe b9dd c1be 2ee3 4cbe
00000120: 1925 b3bd f58a 5f3e bea1 37bd d2ff 3f3e
00000130: bf69 8d3c 6a21 5cbe 2265 1a3e e86c 27be
00000140: 769b 98bd cbf5 fc3b ede2 593d 4ed6 8abd
00000150: 6b43 963e 48db f8bd 8745 adbb 1057 9a3d
00000160: f67f 6d3c 40cc 29bd 9836 5cbb ca1f 94bd
00000170: e967 96be 2b21 2a3e eb6b f1bc 6724 4e3e
00000180: d028 763e 4dc2 5ebd e819 7cbe 4e8a 2c3e
00000190: 366d 4abd 6410 46be 931c 03be 58d3 99b9
000001a0: 1fd2 603d 7114 f63e 8e15 19be 3173 f83e
000001b0: 69bc 86be 1b37 093e 3a50 0b3e 67ee b3be
000001c0: da20 6cbe c4f1 2bbe d503 60be 3944 7dbc
000001d0: 62f9 493e 3bb9 97be a5f5 c8bc c7b5 e33c
000001e0: 411f bcbd 697a f53e 09ce ab3d a76d 243e
000001f0: 6162 bd3e c881 343e 49eb 40bd 0e0f 00be
00000200: 87d1 8f3d d14f d53d cfc2 593e 1636 08be
00000210: 052b bfbd 8d3d d33c faf6 6b3e 1f0b 92be
00000220: c134 3ebe 6234 133d d7d0 803d d826 e13d
00000230: b7a4 a4be 46ce aebc 6c77 493d 6412 1abc
00000240: 48be f03d 9281 493e 9fd2 6d3a 4b7b 183e
00000250: 77e8 da3c 4f0c 38be c490 213c 152c 1f3e
00000260: d3b9 6d3d 19dd 6a3e 75df 3d3c 760f 073c
00000270: 877a 9abd ab50 093e 93c4 973d f9ed fabd
00000280: 11a2 d8bd 9713 95be 11a2 ecbd 1df8 b3bd
00000290: b622 513e ad85 53be c7ca 913c 5388 053e
000002a0: 675d ffbd a8d1 6fbd 0e3b 9d3c 49b7 503d
000002b0: d963 0f3e d1c8 eebd 71c9 623d 6a33 d63d
000002c0: 3113 21be 320f f5bc d9a9 593d 22ed 793e
000002d0: 7663 1e3d 9dd7 a1bc 0151 cdbd de02 253d
000002e0: cde2 dabb ad6e a0bd 9c07 80be ae8b 73be
000002f0: 2b18 c4be 1d5a 02be f254 713e 2e2e b43e
00000300: 40c1 713d 12de c53e 775d 41be 5e50 8ebe
00000310: a43a 723d b6fb 283e c2b5 08be c009 243e
00000320: 059e a0bd efb6 4b3e 851f d03c c7b9 393d
00000330: d0e6 703b 1522 7cbe 9ef6 173e afc7 40bd
00000340: da1d 3dbe 3201 09be 698a 423e d308 8e3e
00000350: 3fea d1be 189e 0e3e bd07 9ebd 64d7 9f3d
00000360: f8b5 03be 9e4d b5be 02a1 953d ac96 9dbe
00000370: a0b7 31be 0146 083d 86cf 2dbe 0665 71be
00000380: 6008 7fbe 42dc a5be f8d9 7bbe b2c2 31bd
00000390: eb77 3a3d 1128 a33b da73 773d b2c6 4d3d
000003a0: 19f8 33be d149 1a3e 80a8 5ebc a791 87bd
000003b0: 8468 3e3e 589b 99be 410e f4bc a891 9abe
000003c0: 7c7e 0fbf a9f1 033e 75c7 35bc 4648 89be
000003d0: 8a62 043e d4e7 783d dd85 82be 6dd3 4fbd
000003e0: f0a1 84bd 650e 0bbe c4cd 1f3d 70bd f63d
000003f0: 3267 f6bc 5c4c 70be 813c acbe d34a f83d
0.15531312 0.016288709 0.08192669 -0.4526134 -0.21848209 0.024148619 -0.18326502 0.0014914069
-0.09347801 0.042345162 0.252838 0.0069949427 0.256002 0.02495249 -0.029137995 0.17474148
-0.34740308 -0.093613684 0.15627693 0.041115515 -0.2094078 0.14083053 0.014886991 -0.016155453
-0.13242173 0.22740021 -0.06445724 -0.015167149 0.09315182 0.20446707 -0.20305252 -0.16196999
0.27767342 0.08004263 0.17194726 0.06288888 0.007818789 -0.06452664 0.14514445 0.19584922
0.09250653 -0.07439973 -0.14478655 -0.13775527 -0.033672415 0.10637652 -0.24535833 -0.21179284
0.17335531 -0.094056 0.088888764 0.31380606 -0.29938817 -0.3548876 0.1645451 -0.10443863
0.2659823 0.08249179 0.06383983 0.24659409 0.20849712 -0.17087935 0.18971272 -0.039358143
-0.16306841 0.060100336 0.0136301685 -0.007570517 -0.03534634 -0.30460054 -0.37864473 -0.20008537
-0.0874731 0.21830352 -0.044831984 0.18749931 0.017262338 -0.21497121 0.15077642 -0.16350138
-0.07451527 0.0077197305 0.05319493 -0.067791566 0.2934831 -0.121511996 -0.0052878293 0.07536137
0.01449584 -0.041454554 -0.0033601876 -0.07232626 -0.29376152 0.16614215 -0.029470405 0.20131074
0.24039006 -0.05438452 -0.24619257 0.16849634 -0.049420558 -0.1934219 -0.12803869 -0.00029339897
0.054887887 0.4806247 -0.14949629 0.48525384 -0.2631562 0.13399927 0.13604823 -0.35142824
-0.23059407 -0.16791445 -0.21876462 -0.01545816 0.19724038 -0.29633507 -0.024531195 0.02779664
-0.09185649 0.47944954 0.083889075 0.16057454 0.3698912 0.17627633 -0.047099385 -0.12505743
0.07022386 0.104156144 0.2126572 -0.13301882 -0.09334377 0.025786186 0.23043433 -0.2852411
-0.18574812 0.035938628 0.06289833 0.10993737 -0.32156917 -0.021338593 0.049186155 -0.009403799
0.11755043 0.19678333 0.00090722175 0.14890783 0.026722176 -0.17973445 0.009861175 0.1554416
0.058038544 0.22935905 0.011588921 0.008243432 -0.075429015 0.13409679 0.074105404 -0.12252421
-0.10577787 -0.29116508 -0.11554349 -0.08787558 0.20423397 -0.20656462 0.017796887 0.13040285
-0.12468987 -0.058549553 0.019193199 0.050956044 0.14002933 -0.116593964 0.05536789 0.10459025
-0.15729977 -0.029914472 0.053140495 0.24406865 0.038669072 -0.019756133 -0.10025216 0.040285937
-0.006679869 -0.0783361 -0.25005805 -0.23783752 -0.3829969 -0.12729688 0.2356756 0.35191482
0.05902219 0.3864599 -0.1888331 -0.2779569 0.059137955 0.1650227 -0.13350585 0.16019344
-0.0784264 0.19894002 0.025405655 0.045343187 0.0036758669 -0.24622376 0.1484017 -0.047065433
-0.18468419 -0.13379362 0.18998112 0.27741107 -0.40999028 0.13927495 -0.0771632 0.078047544
-0.12862384 -0.3541078 0.073061004 -0.30779016 -0.17355204 0.033269886 -0.16973695 -0.23573694
-0.24905539 -0.32394606 -0.24594867 -0.043398567 0.04552452 0.0049791415 0.06041322 0.05023832
-0.1757511 0.15067221 -0.013589978 -0.06619578 0.18594557 -0.3000133 -0.029791953 -0.30189252
-0.56052375 0.12885155 -0.011094918 -0.26812953 0.12928215 0.060767964 -0.25492755 -0.05073874
-0.064761996 -0.1357971 0.039014593 0.12047851 -0.030078504 -0.23466629 -0.3363991 0.121236466

bias f4 [64]
00000000: 009f b83b b04e ee38 d4e7 033b f303 48bb
00000010: eb6e 9e39 2dcd a3ba 3b5c 093a de72 953b
00000020: ecd2 beba 8e6a 8a3b ecef b5ba e7df 76ba
00000030: 2cb8 ad3b 0f63 4dbb 8460 9d38 6f4e 89bb
00000040: ad91 553b e6aa ac3b dbd6 c63a 2859 803b
00000050: 64c5 deba 35d1 a0ba 3e0d 19b9 5f87 c739
00000060: fbfe 79b4 5e15 7cbb 9555 933b 959e d13a
00000070: 6e61 b63a a691 c4bb 9003 9038 0cee 333b
00000080: e91e d339 f752 c139 7c2f 543a 3b6b c439
00000090: e1ac 443b c792 19bb a59e 37bb b085 e038
000000a0: 6ca7 afba 7fe3 053b e496 e8ba c3e5 e1ba
000000b0: d913 413b 0b2c e639 f2e7 adb8 b2f2 a4ba
000000c0: 40b8 a53a 3337 75b9 eb0b 10b9 dfb9 a9ba
000000d0: a3ad dfbb 4808 5b36 d14e b93a 0d16 e63a
000000e0: cd57 2f3b 475d 88bb 11f0 a2b8 f510 a6bb
000000f0: 37ba cfba fb39 d839 39d2 4cba b5cd c93a
0.0056341887 0.00011363381 0.0020127194 -0.0030519932 0.0003021875 -0.001249706 0.00052398787 0.0045608124
-0.0014558709 0.004224128 -0.0013880706 -0.00094175193 0.005301496 -0.003133956 7.504321e-05 -0.004190258
0.003258805 0.005269396 0.0015170233 0.0039168783 -0.0016996083 -0.001226938 -0.0001459615 0.00038057097
-2.3282693e-07 -0.0038464884 0.004496286 0.0015992696 0.0013914534 -0.005998808 6.867119e-05 0.002745512
0.00040268086 0.00036873642 0.0008094234 0.00037463926 0.003001027 -0.0023433433 -0.0028018143 0.000107060536
-0.0013401336 0.0020429788 -0.0017745164 -0.0017234612 0.0029461293 0.00043901833 -8.292486e-05 -0.0012584536
0.0012643412 -0.00023385584 -0.0001373735 -0.0012949071 -0.006826119 3.2638363e-06 0.0014137869 0.0017554179
0.0026755214 -0.00416151 -7.769478e-05 -0.0050679394 -0.0015848343 0.0004124193 -0.0007813308 0.0015396388

weight f4 [64, 64]
00000000: 0e5d ca3d 0ce6 74be 4cbf 83bd fa24 803d
00000010: 15d3 8fbe 3356 71be 5219 9b3d 2170 15bd
00000020: c63d 6b3e 5327 9fbe 818e fa3d 0ecb ff3d
00000030: 49bc 113c 2c38 38bd a5e1 933d 0dc0 2ebe
00000040: 129a 01be 64cd a13d 225c a93d d97d f43d
00000050: d64a abbc 48ca 44bd 446f 8cbc b00f 3dbe
00000060: 1e75 f93e 4874 87be 9187 963c 0196 573e
00000070: 8071 4a3e 4652 8abe 08ce 10be 9757 1e3e
00000080: defe e3bc e298 65be ee39 09be 611d 7cbb
00000090: ff1c 4ebe 24b3 79be 5590 63be 8a7f 85be
000000a0: 5bd9 f63d 7fc7 873e 9914 7e3d 0e39 883e
000000b0: 6230 c8bd f82c 2d3e c021 16be 7c8a a53e
000000c0: 0870 81be 01dc d43d 2c78 bbbd 9cd9 7ebc
000000d0: 0b7e 273e 1629 803e 6f58 eabd 0d17 153e
000000e0: 20ab fe3c 597e 40be f0de ffbd b4ed 3a3c
000000f0: 69a3 21be 4900 3bbe cfd2 633e 08ac 0abd
00000100: 92b9 d3bc 14f0 23bd 6b25 2e3e 54d4 8b3e
00000110: ea02 133e a67f 163c 45b5 883e 8ad8 023e
00000120: 4430 0fbe 598e 213e febc 47be c0e0 413e
00000130: a554 2ebe 5d83 e9bd 8839 a03d 317b 883e
00000140: 4835 35bd 27cb cbbc 45bf dfbd 68a4 1c3e
00000150: 08e6 853d 225a 053e 4937 9ebd 6781 8fbe
00000160: 8f03 73be 4823 06bb baf4 4ebe 3a56 fabd
00000170: 7e54 ecbe 9c0f 893e 626f e7be e3ee fcbc
00000180: 3045 05be 2c30 0dbe feb1 013d f232 53bd
00000190: 044c 4abc 13ae d73d 6633 8c3d ee72 abbe
000001a0: 8481 343d f2b7 e73e 9803 fd3c 9ba1 7f3e
000001b0: 2db3 3bbe b336 acbd 2ee1 acbe 5115 983e
000001c0: 6919 d33d 8e3c dd3d 20dc 8c3d 7ce2 02bd
000001d0: 2c14 02be ba70 3cbd a1c4 2c3d 7be3 b3bc
000001e0: 991e ed3d b532 273e 1dde 193d 727b 033e
000001f0: e168 843d 8427 d6bd c867 55bd b213 6f3d
00000200: 19a5 9c3e e542 3fbc da30 e13d dfc7 403e
00000210: b57f 3ebd 176e c73e ccbc a2bd 94eb 6f3e
00000220: 3bd0 a8bc 5fc8 70be 3ab0 0abe 2aea c13d
00000230: e7e1 0a3e 1cb6 d83d 8d35 19bc 05a4 0cbd
00000240: c88b 7a3e 8445 993e 94f5 a3be 53c1 f43c
00000250: 28f7 82bc e5c4 683e ba2f c6bd 5a02 8b3e
00000260: 2a8a 513c f814 7e3e 44a9 243d c9af 5c3e
00000270: 6a98 7cbc 0f1b a5bd eab5 2b3d 1f48 053d
00000280: 10dd 0ebe 0424 903b df54 003f 4869 953d
00000290: 8a2d 313d 7ec5 333d 950e b03e f1dc 72bd
000002a0: 9b8d 92bd 1497 4dbd d521 fc3d 0679 813e
000002b0: 54e5 013e f6b1 0ebc ce61 7cbd ee3a 88bc
000002c0: d97f 67be f4d2 1d3e 8801 0dbe 5248 913d
000002d0: 7203 1a3e 970f 523d e696 c3be 8b60 9fbd
000002e0: 9dc9 a6bc 6bfa 2a3e f28c 433e fdfc 963d
000002f0: a5a6 48be a1cb 103e 6387 a63e a8b8 043d
00000300: cff8 b7be 5924 053e c043 a9bd be61 01bb
00000310: cab0 823e 0686 83bd dff8 f0bd 905c 58be
00000320: 5ba6 2e3e 1a4d 20bc bed3 7c3e 31c7 c83d
00000330: 013b 3abe 4254 56bc 397b 833e 21b2 2dbe
00000340: 865f ddbd 91e5 54bd 49d4 f9bd dd1e a9bd
00000350: a8fc 6abd 2321 16be 890d 30be 22e5 eb3d
00000360: a247 b0bc f5d7 893d 2f15 61bd c41c 0fbe
00000370: 368e 75be 7290 debc b6de 483c b723 813e
00000380: c630 193e b266 983e 81ff 923e 16d9 17be
00000390: 58a9 d93c 01eb ddbd 52e3 9fbe e597 bbbe
000003a0: 3227 32be 639d c0bb 6fdd ba3d 1f1e 6ebd
000003b0: 213e 9c3e 2def b63d 206e bbbd 01eb fd3d
000003c0: 8bb4 993e 4abd 263d 31eb 50be 5190 0e3e
000003d0: d623 70bc a78e a43e 0d9f 0d3b 6a06 91bd
000003e0: 7d43 633d 7770 363e 5249 c8bc 53ff 93be
000003f0: fa0c e4bd fdc8 a23e 5aca 983e b31f 303e
0.0988103 -0.23915881 -0.06432971 0.06257053 -0.2809073 -0.23568039 0.07573189 -0.036483888
0.22972783 -0.3108469 0.12234212 0.124899015 0.008894988 -0.044975445 0.07220773 -0.17065449
-0.1265643 0.07900503 0.08269526 0.11938066 -0.020909708 -0.048044473 -0.0171429 -0.18463016
0.48722166 -0.26455903 0.01837519 0.21053316 0.1976986 -0.27015895 -0.14141095 0.154631
-0.027831491 -0.22421601 -0.13401005 -0.003846966 -0.20128249 -0.24384743 -0.22223027 -0.26073867
0.12053176 0.2651939 0.062031362 0.2660603 -0.09774853 0.16911685 -0.14661312 0.32332218
-0.25280786 0.10393525 -0.0915378 -0.015554812 0.16356675 0.25031346 -0.114426486 0.14559574
0.031087458 -0.18798198 -0.12493694 0.011409212 -0.15784992 -0.18261828 0.22248386 -0.033855468
-0.025845323 -0.04002388 0.17006461 0.2731043 0.1435658 0.009185707 0.26700798 0.12777916
-0.13983256 0.15776958 -0.19505689 0.18933392 -0.17024477 -0.11402009 0.07823473 0.26656488
-0.044240266 -0.024877144 -0.10925154 0.15297091 0.065380156 0.13022664 -0.077253886 -0.28028414
-0.23731826 -0.0020467807 -0.20210543 -0.12223478 -0.46158212 0.26769722 -0.45202166 -0.030875629
-0.13014674 -0.13787907 0.031663887 -0.051562257 -0.012347225 0.10531249 0.06845741 -0.33486122
0.04406883 0.45257527 0.030885503 0.24963991 -0.18330069 -0.084088705 -0.33765548 0.29703763
0.10307581 0.108025655 0.06877923 -0.031954274 -0.12703007 -0.046005942 0.042179707 -0.021959057
0.11578102 0.16327937 0.03756534 0.1284006 0.064653166 -0.10456756 -0.052100927 0.058368392
0.3059471 -0.011673664 0.10995646 0.18826245 -0.04650851 0.3895118 -0.079461664 0.2342971
-0.020607105 -0.23513936 -0.13543788 0.094684914 0.13562737 0.105816096 -0.009351146 -0.03433611
0.24467385 0.2993585 -0.320233 0.02987734 -0.015986994 0.2273136 -0.09677072 0.27150232
0.012789289 0.24812686 0.040200487 0.21551432 -0.015417198 -0.08061802 0.041921534 0.032539483
-0.13951516 0.0043988246 0.50129503 0.072954714 0.04325632 0.043889515 0.34386125 -0.059292737
-0.07155915 -0.050192907 0.123111404 0.25287646 0.12685138 -0.008709421 -0.06161671 -0.016629662
-0.22607364 0.15412503 -0.13770115 0.07093872 0.15040377 0.0512844 -0.38201064 -0.07782086
-0.020359809 0.1669709 0.19096735 0.073724724 -0.1959482 0.14140178 0.32525167 0.032402664
-0.35932013 0.13002147 -0.082648754 -0.0019742097 0.25525504 -0.06422047 -0.117662184 -0.2112906
0.17055647 -0.009784007 0.24690148 0.09803618 -0.1818657 -0.013081612 0.2567995 -0.16962482
-0.10809235 -0.051976744 -0.12198693 -0.0825784 -0.057369858 -0.14661078 -0.17192663 0.11518313
-0.021518532 0.06730644 -0.054951843 -0.13975817 -0.2398003 -0.027168486 0.01226013 0.2522256
0.14960012 0.2976585 0.2871056 -0.14828905 0.026570007 -0.10835839 -0.3122812 -0.36639324
-0.17397764 -0.005878137 0.09124266 -0.058134194 0.3051615 0.08932338 -0.09151864 0.12398339
0.30020556 0.040707864 -0.20402218 0.1392224 -0.014656981 0.32140085 0.0021609694 -0.070813015
0.055484284 0.1781634 -0.024449024 -0.28905734 -0.111352876 0.31793967 0.29841882 0.17199592

bias f4 [64]
00000000: 52b8 e039 c85c d2b9 b8e9 bdb9 be54 d3bb
00000010: 94d5 aa3b cf99 ae3b 0134 8d3b 9a4e e33b
00000020: 272b 95bb ba3f 4aba 6c44 17bb de48 db3b
00000030: 9ca9 923b 5833 943b 2ebf 583b 0a7f 383b
00000040: b2d4 ccbb f924 733a 22a2 c3b9 ee62 de3b
00000050: ac15 603b a4d6 063c bc8c 063b 78b1 8abb
00000060: 06cf 873b 8083 d5bb 2b9b 7abb d3d0 a7bb
00000070: 2fb0 1f3b 94bd 9f3b 9e05 b03b 6f08 db3a
00000080: 51c5 8c3b 578b 5bbb 63c7 23ba 669f 25ba
00000090: 8234 cdbb 5f53 7bbb 6f70 4b3b 49cb ad3b
000000a0: 1a5e 263b bbf0 4ebb b7f0 ac39 e1e5 74bb
000000b0: 16db 87b9 ca3d bbbb c71d a53b b6a2 3a3b
000000c0: 1dee 95bb d732 71bb 5379 0c3b 7b15 3fbb
000000d0: fbff 5cbb 3755 f5bb 505e 8ebb 3a30 8cba
000000e0: 4841 05ba c2f7 34bb a4c7 593b e8cd 5abb
000000f0: a08a a8bb 4acf ae3a 7e99 7b3b d920 dfba
0.0004286194 -0.0004012345 -0.00036223023 -0.006449311 0.005213449 0.005328394 0.004309178 0.0069368603
-0.0045522633 -0.00077151845 -0.0023081554 0.006692036 0.0044757854 0.004522722 0.0033072936 0.0028151893
-0.006250941 0.0009275224 -0.00037314097 0.0067866957 0.0034192605 0.008229885 0.0020530662 -0.0042325817
0.004144552 -0.00651592 -0.003823946 -0.0051213293 0.0024366488 0.0048748944 0.0053717634 0.0016710887
0.004295983 -0.00334998 -0.00062476675 -0.00063180027 -0.006262363 -0.0038349254 0.0031042357 0.0053037745
0.0025385679 -0.0031576592 0.00032985743 -0.0037368464 -0.00025912438 -0.005714153 0.00503895 0.002847833
-0.0045755045 -0.0036803985 0.002143462 -0.002915709 -0.0033721912 -0.007486965 -0.004344739 -0.0010695525
-0.0005083275 -0.0027613495 0.0033230567 -0.003338689 -0.0051434785 0.0013336923 0.003839105 -0.0017023339

weight f4 [64, 10]
00000000: b2b8 603e cd75 313d 95b0 a63d 0623 9d3d
00000010: 8637 65be da09 25bd a6c3 5fbc 14ef 08bc
00000020: ebcc 323e 28d3 a53d 5194 313e 1cd8 88bd
00000030: 106e 713d bc01 3fbb 6f5e debb 7894 4ebc
00000040: 793e ae3e 7069 5abd 6065 1d3c 5f38 93bc
00000050: c989 dd3d fce0 cfbd f050 86bd 88e5 babe
00000060: 1126 ecbc f464 edbc 8cdd 803e 43c8 eb3e
00000070: ff91 ef3c a8cd dd3c e892 cbbd b676 df3d
00000080: 627f 783e 2809 ba3c bcd0 0a3d 2873 86be
00000090: 8208 96be cf06 80be d9f4 efbc f62e 553d
000000a0: 1d9e 17be b522 96be 8ebb 53bd bfe0 863e
000000b0: d143 64bd b063 933e 7b0d d1be a404 a23e
000000c0: 5067 013e feed 833e d070 2ebd 837e c13e
000000d0: f01f 33be c892 89bc 8f7a a7be edc8 92be
000000e0: d70f 2f3e 5611 133e c004 a4be 8baf be3c
000000f0: 812c ed3d 4684 b7be 0b1b 693e 6299 46be
00000100: 56c6 e63c aeab 4d3e 1649 3f3d 3408 ffbd
00000110: 7d4b 373d fe28 2bbe e472 a0be dac4 433c
00000120: e8bd 503e f915 adbd a47f ab3e 6c05 20bc
00000130: 5da5 93bd ad55 c93c f878 413e 86e1 b5be
00000140: efea da3e a275 c93d 9d1d 0cbe 48cc 0e3e
00000150: a2b9 d4bd 6cce 113e 318e 07be 2933 5c3d
00000160: 2af6 353e f174 2b3d 7eb8 6b3d b740 9b3d
00000170: 4123 6d3d 5a05 84bc 612d 81be e317 c8bd
00000180: dff3 eb3d 139c aebe a03a 743e d25f 613d
00000190: 283d 28be e361 bfbe 7b58 3d3e e532 873c
000001a0: 6617 bb3d 768d f8bd 787e 85bc 48c7 153d
000001b0: 3d37 cd3e 5e56 1abe 2d7e 763d a7da 51be
000001c0: b8a2 a5be b597 db3e 2287 f33d 14f8 0cbe
000001d0: a44c ed3d 7bd2 163e 74e4 013e 2ddf 99be
000001e0: d6e4 753d e270 98bc 2403 bb39 7e44 993c
000001f0: 2458 e93c d264 6f3e b545 003e dcc9 8a3e
00000200: 4e7b 2cbd d008 04be c836 05bb b272 fdbc
00000210: 38db 1bbe 00c1 dc3d 8037 2b3d 09aa 9f3e
00000220: b798 8cbd 98e7 c23d 59e2 b43d 1597 803e
00000230: 9a2f df3d 964a aabe 276c 23be c843 e03d
00000240: a965 e33d 7b48 643e 7e21 c63d a965 bdbe
00000250: f8f0 0f3e a04f 10b9 e640 3bbd 3e62 74be
00000260: b34e 90bd 8ce4 1abe 24d9 123c ec71 b0bd
00000270: 82a1 86bd 684f 233e 5afd 6a3c 4d57 a83d
00000280: ccfa fc3d 0aec 74bd 6b87 2d3d 26c7 b9be
00000290: a36f 76be b162 6f3d 1782 22be 5a3e ccbd
000002a0: c98b 22bd 72b3 2c3e eb58 95bd e41a efba
000002b0: 3aa0 7abd 7000 04be 0cb1 e73d 3352 693e
000002c0: a9d4 0fbc 8c07 2dbe 84fe 3abe 12dc 443e
000002d0: c6bc c4bd f369 8e3d 3835 5abe a4d2 dfbd
000002e0: 4b7b 89be 8aba 3b3d d655 2bbe 70d6 a6bd
000002f0: 31ed 1d3e ac39 033e 4ebd 2bbe 71e2 283e
00000300: a606 16be 4278 8bbd 9eae 693e f38d 513d
00000310: 1ee3 d93d d0e8 623e f73f 1e3d 645c 23be
00000320: 0bf6 0ebd f8d6 a3be 5c5a 6fbe 6603 56be
00000330: 1320 40be 4045 17bd b607 bcbd 6efe 10be
00000340: cc6c 8abe ddfa cf3b aad7 d7be a92d c2bd
00000350: f523 31be e461 c03d e222 bfbd 0b77 06be
00000360: c573 c8bd 431f ed3c 63c2 3e3e 3efb 1abe
00000370: 3eb7 d63b f076 66bd 7c2b 51be dbb9 9d3e
00000380: 1d5f 103e 5273 933c f8bb e4bd b5bd 8c3c
00000390: e193 e9be 97b9 813d 82dc 233d 9059 26be
000003a0: 6af4 4a3e 7e3f 14be 7020 b73b 4f54 4f3e
000003b0: 6cda 3b3d e7f2 883e b5dd 763c ad61 dd3e
000003c0: 6447 213e 4f80 aabd 3d53 a2bd 5285 9d3e
000003d0: 18d8 5dbe 84b7 a3bc 6890 983c 8210 a2bd
000003e0: 1ede 25bd 16c2 a43d e6ae 9fbe b981 29be
000003f0: 1605 a93d 6300 e8bd 4c74 4cbe 0ed8 363c
0.21945456 0.043325234 0.08139149 0.07672696 -0.22384462 -0.0402926 -0.013657486 -0.008357782
0.17460983 0.080969155 0.17341734 -0.066818446 0.058942854 -0.002914532 -0.0067861597 -0.01260864
0.34032038 -0.05332321 0.009606689 -0.017971216 0.10817296 -0.10150334 -0.06558406 -0.36503243
-0.028826745 -0.028978802 0.25169027 0.46051225 0.029244421 0.027075604 -0.099401295 0.10911314
0.24267343 0.022709444 0.03389047 -0.26259732 -0.29303366 -0.25005195 -0.029291557 0.05204674
-0.14806409 -0.29323354 -0.051692538 0.26343343 -0.055728737 0.28786993 -0.40830597 0.31644166
0.12637067 0.2576751 -0.042588055 0.37791833 -0.17492652 -0.016793624 -0.32710692 -0.2866892
0.17095886 0.14362082 -0.32034874 0.023277065 0.11580754 -0.35843104 0.22764222 -0.19394448
0.028170746 0.20085022 0.04670056 -0.124527365 0.044749726 -0.16714856 -0.31337655 0.011948789
0.20384943 -0.084514566 0.3349582 -0.009766918 -0.07209275 0.024576986 0.18893802 -0.35523623
0.42757365 0.0983689 -0.13683172 0.13945115 -0.10386969 0.142389 -0.13237835 0.053759728
0.17769685 0.04185957 0.057548992 0.07580703 0.05789495 -0.016115833 -0.25229934 -0.09770181
0.11521124 -0.3410345 0.23850489 0.055023022 -0.1642958 -0.3737937 0.18490784 0.01650376
0.09135322 -0.121363565 -0.016295657 0.036567003 0.40081206 -0.15072009 0.060178924 -0.20493565
-0.32350707 0.4288918 0.11891009 -0.1376651 0.11586884 0.1472873 0.12684804 -0.30053082
0.060032688 -0.018608514 0.0003566976 0.018709417 0.028484412 0.23378304 0.12526591 0.2710713
-0.04210978 -0.12893987 -0.0020326842 -0.03093848 -0.15220344 0.10778999 0.041800976 0.31184414
-0.068650655 0.09516829 0.08832235 0.25115266 0.10897751 -0.3326003 -0.15959226 0.10950428
0.111033745 0.22293274 0.09674357 -0.36991623 0.14056766 -0.00013762573 -0.04571619 -0.23865601
-0.07046261 -0.15126246 0.008962903 -0.08615479 -0.06573774 0.1594826 0.01434263 0.08219776
0.12352523 -0.059795417 0.042365473 -0.3628475 -0.24066024 0.05844373 -0.15869938 -0.0997283
-0.03968409 0.16865328 -0.072923504 -0.0018242267 -0.06118796 -0.12890792 0.11313066 0.22785263
-0.0087787295 -0.1689741 -0.18261153 0.19224575 -0.09606318 0.06953802 -0.21309364 -0.109288484
-0.26851878 0.045832194 -0.16731963 -0.081463695 0.15422513 0.12814969 -0.16771433 0.1649263
-0.14650974 -0.06810047 0.22820517 0.051160764 0.10639022 0.22159123 0.03863522 -0.15953213
-0.034902614 -0.31999946 -0.23374313 -0.20899734 -0.18762235 -0.036931276 -0.09181158 -0.14159557
-0.2703613 0.006347044 -0.42156726 -0.09481365 -0.17298873 0.09393671 -0.09332825 -0.13131349
-0.09787706 0.02894557 0.1862884 -0.15134904 0.006552606 -0.05626577 -0.20426744 0.3080586
0.14098783 0.017999325 -0.11168665 0.017180303 -0.45620635 0.063342266 0.040005215 -0.16245103
0.19819799 -0.14477345 0.0055885836 0.20247005 0.0458626 0.2674782 0.0150675075 0.43238583
0.1574989 -0.08325254 -0.07926033 0.30765778 -0.21664464 -0.019984968 0.018623546 -0.07913305
-0.04049503 0.080448315 -0.31188124 -0.16553392 0.08252923 -0.11328199 -0.19966239 0.01115991

bias f4 [64]
00000000: a761 09bc bfad 773a 4690 dabb 2720 103c
00000010: 0cd6 c7bb 7fff fabb a238 d8bb 9f42 24bb
00000020: a5c8 79bb 8377 0e3c e539 a8bb bf43 17bc
00000030: b5b5 f93b 9e6f 163c 11e7 7e3b de58 15bc
00000040: 20fb e03b d632 073c c4cf 1abc 1bb8 1b3b
00000050: 5c67 67ba 4242 463b 503e d8bb 75a8 12bc
00000060: b074 b4bb 965b 21bb 7efc 0e3c b08b f9bb
00000070: 1815 9d3b b316 01bc 6d3a b9bb 42f0 0f3c
00000080: d1f6 0bbc c010 003c 80e5 82bb 9377 0dbc
00000090: e771 953b 65ea 06bc a290 863b 4826 833b
000000a0: 3bff 113c 7ac4 4fbb 9a23 21ba 35e3 e2bb
000000b0: 3607 29bb 5087 053c 2502 1a3c b096 e13b
000000c0: 3125 d13b c214 23bb e879 17bc b295 e4bb
000000d0: 8bad 173c 4d4f 0abc 4699 083c 200f e6bb
000000e0: 2674 183b bba2 f33b 27bb dfbb 34b8 b5bb
000000f0: 4886 e43a 6353 b83b 4911 11bc edfb 9d3b
-0.008385099 0.00094481924 -0.0066700308 0.008796728 -0.0060985144 -0.007659852 -0.006598548 -0.0025064123
-0.0038113978 0.008695486 -0.0051338547 -0.0092324605 0.007620538 0.009181885 0.003889505 -0.009115426
0.006865874 0.008251866 -0.009448949 0.0023760858 -0.00088273524 0.0030251895 -0.006599225 -0.008951296
-0.0055070743 -0.002462124 0.008727191 -0.007615529 0.0047937743 -0.007878947 -0.005652717 0.008785309
-0.008542732 0.0078164935 -0.0039946437 -0.008634466 0.0045606974 -0.008234595 0.004106597 0.004002366
0.008910949 -0.0031702803 -0.00061469676 -0.006924058 -0.0025791652 0.008149937 0.009399925 0.0068844184
0.0063826074 -0.0024884199 -0.009245373 -0.006975853 0.009257684 -0.008441758 0.0083373245 -0.007020846
0.002326259 0.0074351705 -0.00682773 -0.0055456404 0.0017435038 0.005625175 -0.008854219 0.0048212917

weight f4 [64, 64]
00000000: c98d 133e f0ed 3cbd 9c17 74be 31f5 07bd
00000010: ea58 383e a0c5 b5bd 3f24 3c3e fc24 05be
00000020: eaa9 8ebe 17e5 2a3d ee1f 88bd ca49 073d
00000030: 7537 36be 4f5b 873d 1e4f 67bd 948b 0b3d
00000040: 03ad 863d d03c d93e d953 53be e7ca f7bd
00000050: 543e c1bc deca 13be be91 693e 3cb6 46bb
00000060: 9797 02be 5993 d5bd e19c 543d f620 66be
00000070: c02a 2d3d ef58 273e aada cd3d c3a8 dcbe
00000080: 916d eb3d aa32 23be c96c f43d 9c98 20be
00000090: 32e6 0a3e 4d39 90be 2820 ad3b 84f3 f33d
000000a0: cafd 103e 0197 653e f799 a73e dbea a9be
000000b0: 5f79 813e 5f16 fd3c d1fe 1d3e 9ef8 793e
000000c0: 31c4 5abd ccf4 80be b59b 35bd e25d 1d3e
000000d0: 35ed 003e 2022 6fbd 2d4e 8bbe b4d0 a5bd
000000e0: f2a2 cfbd eb78 443e 3e5f 273c 030c 91be
000000f0: e853 f1bd 39ff bbbe c604 f43c 8abb 0abe
00000100: 66a0 423e f5fb b33d 56c4 953d 3ae7 efbe
00000110: 6c61 583e 2bee 013f ce29 85bc efe8 483e
00000120: 9857 873e 65e8 d03e 7f8c 5b3d b493 5c3e
00000130: be58 0d3e be35 fe3c e265 203d 271d 2dbe
00000140: 0088 b83d 6e81 af3e e739 623d 2a17 76be
00000150: 8434 323e 1c96 db3c b917 5a3e e006 1bbc
00000160: e690 8a3c 2eb4 95be ae0c b83d 69aa 02be
00000170: a418 693e 8c97 01be 6470 34be fbec e1bd
00000180: 9dde b6be 5d4e 9fbc f221 8abd 17b9 c13d
00000190: 2e9f 5cbb efa5 80bd 482d 163d 1c99 28be
000001a0: 5de3 05be 746c 7e3d fd5b 91bd 9cb7 ae3d
000001b0: 085e 0d3e b522 c63d a000 1fbe 3308 533d
000001c0: f41e 36bc 804f 203d 3abc 3ebe fe52 0ebd
000001d0: 8946 4b3e 48d4 213d cff2 0a3e 2df4 f8bd
000001e0: 8588 31be b92e 4bbe f34c 4d3e 8708 5e3e
000001f0: 3c2b 3abe 1279 bbbc eef9 5a3c dd10 033e
00000200: b709 bcbd 2655 b0bd d22c 2f3e a915 873e
00000210: eecb 9bbe 5f04 2dbe e2d8 bf3c 2979 333e
00000220: 4ec8 c43b 978c 3a3e 2677 22be c8ba de3e
00000230: 073c 90be 8cf5 95bc 8f76 5abd a77c 2fbc
00000240: 232b d83d 2f85 663e 2dce 1dbe e842 7e3d
00000250: 802b 96bd ab5d 53be 826d 82be 7e00 40be
00000260: d3dd 903b 7812 5c3e 3bd9 7fbc 788c 8bbc
00000270: 4ab3 1e3d 5037 e8bd 41e6 31be 935c 073e
00000280: e24c 02be 07eb 37be 9442 15bd 05b9 663e
00000290: fb5b 893e e6f9 9fbc c0de e2ba 5a33 10bf
000002a0: 9fab dabd 75c4 02be abfb d9bd 585d 7b3e
000002b0: 3ad6 843e c47b 22bc 215a 593e 6776 08be
000002c0: c321 18be 969d aebe 88fa 95bc 5ca7 12be
000002d0: c816 8d3d 001a c03d 29d9 6abc d25a 18be
000002e0: e1e9 cbbd dd5c 603e 9470 96bd 23a7 54be
000002f0: 7365 32be 3f98 3f3d 226c 4f3c f03e b9bc
00000300: 73f4 7f3d 5839 013d ba5f 3a3d 11b2 c5be
00000310: 8d63 353d fb64 433c f03f 413e af33 24be
00000320: 18cb 933d 31c9 4fbe 6270 543d 8824 f63d
00000330: e209 74bd c9e8 fb3d d53d dabc de54 dabc
00000340: 2022 46be cacd 50be 05a6 113e 881a 93be
00000350: af86 cfbe fd53 39be 5e44 3abd f39b 103e
00000360: 71bc 0ebe 59aa 41be aa26 5e3c 9279 bc3e
00000370: 44bb d9bd 46ce 803d 0846 cd3d bd4b 95be
00000380: 2cc1 113e 3e03 6dbd 96ef d03c 60b2 483e
00000390: 8e35 b63c e4b8 713e 383f b9bd a0a6 a8be
000003a0: 6a6e 793e 7fa5 c2be a579 b2bd 1efb 88be
000003b0: 6f6b dd3e de49 253e 61fc e93c b022 e0bd
000003c0: d6e9 00bc 770c f23d 2813 183e 23a2 473e
000003d0: 14cc 40be 8247 d13d d89a c33d c28e 4e3d
000003e0: d0f1 23be 86c9 5b3e a7bc ba3d 1c72 8d3d
000003f0: edb2 a23d 5a5d 523e 94d4 b63d 3132 493d
0.14409555 -0.046125352 -0.23837131 -0.033192817 0.18002668 -0.088755846 0.18373202 -0.1300239
-0.2786401 0.041722383 -0.06646715 0.033029355 -0.17794593 0.066092126 -0.056471936 0.03406866
0.06575968 0.4242921 -0.20637454 -0.120992474 -0.02358929 -0.14432856 0.22809502 -0.0030321022
-0.1275314 -0.10428495 0.051907424 -0.22473511 0.042277098 0.16342519 0.100514725 -0.43097505
0.114955075 -0.15937296 0.119348116 -0.15683216 0.13564375 -0.28168717 0.0052833743 0.11911681
0.14159313 0.22420885 0.32734653 -0.33186993 0.2528791 0.030894456 0.15429236 0.24411246
-0.05340976 -0.25186765 -0.044337947 0.15367845 0.12590487 -0.058382154 -0.2720808 -0.080964476
-0.10138501 0.19186752 0.010215579 -0.28329477 -0.11783582 -0.36718157 0.029787432 -0.13548103
0.190065 0.08788291 0.07312839 -0.468561 0.21130913 0.5075404 -0.016255286 0.19620107
0.26434016 0.40802303 0.053600784 0.2154072 0.13803384 0.031031486 0.039159663 -0.16905652
0.09010315 0.34278435 0.055231 -0.24032274 0.17402846 0.026804976 0.21298112 -0.009462088
0.016914796 -0.2923903 0.089867935 -0.12760319 0.22763306 -0.12655467 -0.17620999 -0.110315286
-0.35716715 -0.019446546 -0.06744756 0.09459131 -0.0033664214 -0.06281649 0.036664277 -0.16464657
-0.13075013 0.062115148 -0.070976235 0.085311145 0.13805401 0.096745886 -0.15527582 0.05152149
-0.011115778 0.039138317 -0.1862649 -0.034747116 0.19851126 0.039509088 0.13569187 -0.12155948
-0.17337234 -0.19842042 0.20048885 0.2168294 -0.18180555 -0.02288488 0.013365252 0.12799402
-0.091815405 -0.08609991 0.17106941 0.26383713 -0.30429024 -0.16896199 0.023418847 0.17526688
0.0060053235 0.18217693 -0.15865764 0.43501878 -0.28170797 -0.018305562 -0.053335723 -0.010710872
0.10555103 0.22511743 -0.15410681 0.062075526 -0.07332516 -0.206412 -0.25474173 -0.18750188
0.0044209748 0.2149142 -0.015615757 -0.017034754 0.038745202 -0.11338675 -0.17372991 0.13218908
-0.12724641 -0.1796075 -0.036440447 0.22531517 0.26827988 -0.01952834 -0.0017308816 -0.56328356
-0.106772654 -0.12770255 -0.10643705 0.24547327 0.25944692 -0.009917203 0.21225788 -0.13326417
-0.14856629 -0.34104604 -0.01830794 -0.14321655 0.06889111 0.09379959 -0.014334002 -0.14878395
-0.09956718 0.21910425 -0.07345691 -0.20766883 -0.17421512 0.046776053 0.012660058 -0.022613019
0.062488984 0.031548828 0.04550145 -0.38612416 0.044284392 0.011925931 0.18872046 -0.1603534
0.072164714 -0.20291592 0.05186499 0.120186865 -0.059579737 0.123002596 -0.026640812 -0.026651796
-0.19348955 -0.20391002 0.14223488 -0.2873118 -0.40532443 -0.18098445 -0.045475356 0.1412199
-0.13939072 -0.18912639 0.013559023 0.368115 -0.10631421 0.062893435 0.10023123 -0.29159346
0.14233845 -0.05786442 0.025504868 0.19599295 0.022242334 0.23605686 -0.09045261 -0.32939625
0.24358526 -0.38016888 -0.08714608 -0.26754087 0.43246028 0.1614146 0.028562726 -0.10944116
-0.007868251 0.11818784 0.14851058 0.19495444 -0.1882785 0.10218717 0.095510185 0.050429113
-0.16010213 0.21463594 0.09118014 0.0690653 0.07944284 0.20543423 0.08927265 0.049120132

bias f4 [64]
00000000: c528 193c 5b2d 0b3c a799 1f3c 2464 21bc
00000010: 43f2 14bc b45f 05bc 4fa2 1abc 6bdf 1d3c
00000020: c6c6 1ebc 7413 1abc 9e44 183c 9b99 f3bb
00000030: bf6a 103c f739 1f3c 79f1 1e3c cf5e 21bc
00000040: 5681 20bc 8621 1a3c 1c44 203c 389a 06bc
00000050: 70e4 1d3c 21b9 82bb 41b3 1abc 39d5 163c
00000060: d3a8 1dbc e5eb f33b fd95 1e3c 9394 0dbc
00000070: 6472 44ba 6323 133c bead 18bc f7f7 1c3c
00000080: 958d f83b b389 13bc 2f85 013c f385 0abc
00000090: 4225 173c 89ae 1b3c 8db0 af3b c1d2 febb
000000a0: 394d 18bc c73a 20bc f9c1 113c 9ab6 10bc
000000b0: 21b2 0bbb 982d ebbb 615b 033c b61d 0abc
000000c0: f5b8 163c a7d3 1cbc 6fee 9abb 2b13 f03b
000000d0: e60d e9ba ab66 1bbc f275 18bc f499 143c
000000e0: d0d1 1c3c c0ad 133c e721 10bc d3c6 183c
000000f0: b7d2 1abc 4b51 20bc e495 21bc d4d3 213c
0.009348099 0.0084947 0.009741223 -0.009850536 -0.009090963 -0.008140493 -0.009438111 0.0096357865
-0.009690946 -0.009404052 0.009293703 -0.0074340827 0.008814513 0.00971841 0.009701126 -0.009849264
-0.009796461 0.009407407 0.009781864 -0.00821548 0.009636983 -0.0039893542 -0.0094421515 0.00920611
-0.00962277 0.0074438923 0.009679315 -0.00864138 -0.0007493852 0.008980605 -0.009318767 0.009580604
0.0075852373 -0.009004998 0.007905289 -0.008454788 0.009225192 0.009502062 0.0053616227 -0.0077765887
-0.009295755 -0.009779639 0.008896344 -0.008832598 -0.002131589 -0.007177066 0.008017392 -0.008429935
0.009199371 -0.009571946 -0.0047281305 0.0073265037 -0.0017780631 -0.009484927 -0.009305464 0.009069908
0.009571508 0.009013593 -0.008797145 0.009324747 -0.009449652 -0.009785007 -0.009862397 0.009877164

weight f4 [1, 64]
00000000: 0ca5 61be 0c12 1ebd 50e3 59be 63ac f13e
00000010: 6c3e f33d 5491 313c 20f4 ff3d 1861 47be
00000020: 4064 663e 1bb9 033e 8c62 08be f0f1 3a3d
00000030: a202 80bd 8227 66be a283 4cbe 6bbd c23e
00000040: 189f b83e 42db d3bd f0ec 80be 6e8d 173d
00000050: 3de5 5ebe c8b5 93bb 74ff d93d 7b4b d8bd
00000060: ec7f 203e 8e76 b5bd 255a 2fbe 9658 593d
00000070: 1152 363c 917a f7bd 3676 583e 2680 b9be
00000080: 3871 08bd 9121 a53d 51c6 f5bc 82ca bc3c
00000090: 3c1c 9bbe 4977 35be 3601 04bd 7c6e 4d3d
000000a0: 30ce 9a3d 43bc 433e cb02 f9bd e260 2a3d
000000b0: da92 743c 6f6d 413d b311 dcbd 5a07 e63c
000000c0: b118 81bd 36b5 b43e 9426 7f3b 0122 f9bc
000000d0: 1f57 283c 444b b13d bd92 333e ca25 16be
000000e0: 5d82 d1bd ac13 8fbd 9db3 583d c540 c8bd
000000f0: 3656 9e3d 474e 6f3e 9327 b53e d0d6 cbbe
-0.22035617 -0.03859143 -0.21278119 0.47201833 0.118771404 0.010837872 0.12497735 -0.19470632
0.2249918 0.12863581 -0.13318843 0.045640886 -0.06250502 -0.22476009 -0.19972089 0.3803514
0.3605888 -0.103445545 -0.2518077 0.037000112 -0.21767135 -0.004507754 0.10644427 -0.10561272
0.15673798 -0.08860503 -0.17124231 0.053062998 0.011127965 -0.120839246 0.21138844 -0.36230582
-0.0333111 0.08063043 -0.030001791 0.023045782 -0.3029498 -0.17721285 -0.032227717 0.050154194
0.075588584 0.19114785 -0.12158736 0.0415963 0.01492759 0.047223505 -0.10745563 0.028079677
-0.06303538 0.35294503 0.0038932906 -0.030411722 0.010274678 0.08656934 0.17536445 -0.14662853
-0.10229943 -0.06986174 0.052905668 -0.09777979 0.07731287 0.23369704 0.35381755 -0.39812326

weight f4 [2, 64]
00000000: ca34 5b3d 9de7 16be 403a a4bb 9e27 7b3e
00000010: 5c03 eebd 4c21 843d 068c 64bd 07f1 46be
00000020: 96ea a73d f0d4 213c faa9 8c3d 3982 0fbe
00000030: 721f f8bd e14a 043d f99e 893d ca45 63bd
00000040: 418a 083e 9aee 803c 907b 35bb c802 2fbe
00000050: c35f 0bbe 58a6 a7be e27a 91bd 6e82 3d3d
00000060: 1833 ed3c fa11 6f3e dc20 893d d667 8d3b
00000070: 620a 263d dd1f b1bd 5e77 4dbe 74cf 4ebd
00000080: e83f 2abe bfba d93c 7855 b5bc 12ac 473c
00000090: 22dd 6e3e 4881 033d b383 45be b32a 46be
000000a0: 60bb 13be b7f2 a53e 84bf c2b9 c738 453e
000000b0: cf12 d93c 5a9f 0b3e 5807 79bd 869b 45bd
000000c0: 5e5e 833d a6df 2b3d 7949 97bd 050c c73d
000000d0: a85a 8f3d 745e 883e 6151 9bbd d81e fe3c
000000e0: cba3 073d 93dc ff3b 594e 67bd 10e8 e13d
000000f0: 0066 703b aef5 653c a647 b1bd 10e7 3ebe
00000100: 27c6 8a3e cba4 f03d c3a2 5d3c 2a94 dfbc
00000110: e7da 1a3e 2056 39be 5a06 4cbd a6fd dd3d
00000120: 4994 893e 345a 1abb f3a6 483c ff97 cebd
00000130: 9aa9 18bd 75fd 1bbe 8992 77be f419 7bbd
00000140: 4d02 653d 2eca b6bc 5a64 24be 1785 febd
00000150: 1519 dfbd 60b5 43be 4a6c 82bd 0ed5 693d
00000160: dc00 94be 2b5b febd 4aca 97bd a8e6 153e
00000170: 1a5a 41be 982b a0bd faca 823e c093 ad3d
00000180: 28dd acbd 6f25 4d3d 366f 2bbe bbcc 303d
00000190: 4ca8 d03c 2305 90bd cd6e f5bd f278 c33c
000001a0: d33c 9e3d ec95 88bd 6033 0cbd 426d 49bd
000001b0: b3c2 133d 1280 683e a8d9 bebd 098f bcbc
000001c0: 5a0a 693d a6b7 c63c f0a7 b93c 02dd 58bc
000001d0: d9cd d7bd fda0 363e 189c 2c3e 05a3 1b3e
000001e0: 4fb0 e7bd 2788 cc3d bf1b 8b3d d20b 1fbd
000001f0: c032 1b3e ca16 36bd 6300 893d a4fc 723e
0.05351714 -0.14736791 -0.0050118268 0.24526832 -0.116217345 0.064516634 -0.0557976 -0.19427882
0.081990406 0.009877428 0.06868358 -0.1401452 -0.12115373 0.032297973 0.06719775 -0.055486478
0.1333399 0.015738774 -0.0027692057 -0.17090905 -0.13610749 -0.32744098 -0.07103516 0.046266966
0.028955027 0.23346701 0.066957206 0.0043153567 0.040537246 -0.086486556 -0.20065066 -0.05049081
-0.16625941 0.026578305 -0.022135481 0.012187021 0.23326543 0.032105714 -0.1928852 -0.19352226
-0.14426947 0.3241174 -0.00037145254 0.1925994 0.026498226 0.13635007 -0.06079802 -0.04824402
0.064144835 0.041961335 -0.07387061 0.097190894 0.06999713 0.26634562 -0.07583881 0.031020567
0.03311519 0.007808277 -0.056471203 0.110305905 0.003668189 0.014035625 -0.08656244 -0.18642831
0.27104303 0.11750182 0.013527575 -0.02729233 0.15122567 -0.1809926 -0.049810745 0.10839395
0.26870945 -0.00235523 0.012246835 -0.10087585 -0.03727112 -0.15233405 -0.24176992 -0.061304048
0.055910397 -0.022313204 -0.16053906 -0.124277286 -0.10893456 -0.19112158 -0.06368311 0.05708795
-0.28906906 -0.12419733 -0.074116305 0.1463877 -0.18882027 -0.07820815 0.25545484 0.08475447
-0.0844062 0.050084528 -0.16741642 0.043163996 0.025470875 -0.0703223 -0.11984024 0.023861382
0.07726445 -0.0666922 -0.034228683 -0.049176462 0.03607435 0.22705105 -0.093188584 -0.023017423
0.056894638 0.024257492 0.022663087 -0.013236286 -0.10537309 0.1783485 0.1685642 0.15198906
-0.11312925 0.099869065 0.067924015 -0.038829632 0.15156078 -0.044455327 0.06689527 0.23729187

bias f4 [2]
00000000: 2b56 17bc fb60 00bc
-0.009236853 -0.007835622

_bias f4 [2, 1]
00000000: 4520 18bc ffa4 163c
-0.009285037 0.009194612
